decoder_conv_autoenc.pt (torch, 180423 bytes, 17 tensors)

decoder_lin.0.weight f4 [128, 2]
000000 3c 98 14 be a9 b6 be be 17 90 0a 3f 1d 53 14 bf
       -0.14511198 -0.37248734 0.54126114 -0.5793932
000010 20 72 75 be 09 fb e7 3d 45 3d 2c bd 72 56 eb 3e
       -0.23969316 0.11327178 -0.04205062 0.4596439
000020 e8 8f 96 3e c9 a0 99 3e 6f bb c4 bc 26 5a 8c 3d
       0.29406667 0.30005482 -0.024015157 0.06853132
000030 4e e4 29 3e 3e 7c c6 be a0 2e e5 bd 8c 9c e9 be
       0.16590998 -0.38766664 -0.11190534 -0.45627248
000040 fe 83 b0 be 9f 4c 1c 3e b9 88 04 3d 9b 43 75 bd
       -0.34475702 0.15263604 0.03235695 -0.059878927
000050 52 81 21 bf e3 27 04 bf 8a ec 2e be 2b 11 81 be
       -0.6308795 -0.5162336 -0.1708242 -0.2520841
000060 c1 85 b6 be aa bd 83 be a8 2d 18 3d cd 2f b1 3e
       -0.3564892 -0.2573064 0.037152916 0.34606782
000070 5d b6 70 3e 28 ae 43 3e 5f 37 49 3e 46 b2 2a 3f
       0.23507066 0.19109404 0.19650029 0.66678274
000080 93 11 e7 bd 29 3c 06 3f bd 06 1b 3f 08 6a d6 3e
       -0.11282649 0.5243555 0.60557157 0.4187777
000090 7b 7c 8e 3d 47 7e 64 be ad bc 0c be 04 5a 1d 3e
       0.069573365 -0.22313796 -0.13743849 0.1536637
0000a0 d2 c8 e5 3b 27 4c ad 3b 62 54 fb 3e e8 7a 8f 3e
       0.007012465 0.005288619 0.49087816 0.28023458
0000b0 c7 05 df 3e ff c8 ff bd 9a 03 d8 3d c8 63 01 be
       0.43559095 -0.12489509 0.10547562 -0.1263572
0000c0 22 94 01 bf a8 37 cf bc 27 4a 2d bf 7b 18 36 be
       -0.5061666 -0.025295094 -0.6769127 -0.17782776
0000d0 b0 a3 e6 3d e6 47 33 bd 8a 2a b3 be a0 70 80 be
       0.1126169 -0.04376974 -0.34993392 -0.25085926
0000e0 d7 4b 89 3e 8a b8 0e 3c 7c be c1 be 2d 98 c8 3e
       0.26815674 0.00871099 -0.3784064 0.391786
0000f0 fb b3 47 bd 73 1d af 3e ef 6a b4 bc 85 67 cf be
       -0.048755627 0.34202155 -0.022023646 -0.40508667
000100 71 02 29 3f 61 1f c4 bd 40 fe 1a be 2d 98 a3 3e
       0.6601935 -0.095762976 -0.15136051 0.31952038
000110 1f 3a c7 3e b1 67 58 3e 86 c3 fc bc 5a 96 ac be
       0.3891153 0.21133305 -0.030854952 -0.3370846
000120 37 56 b8 3d 7b ea 8a 3d 8e ec 13 bf 08 90 56 3e
       0.09000819 0.06783005 -0.5778283 0.20953381
000130 27 e3 39 3e 56 31 5c 3e 85 7e e6 be 9c a8 66 3e
       0.18153058 0.21503195 -0.45018402 0.22525257
000140 c8 96 8f be a0 63 10 3e 30 e6 be bd 69 fa 1e be
       -0.28044724 0.14100504 -0.093212485 -0.15525211
000150 10 91 47 be b1 49 77 3e 05 f7 3d be f8 9e c4 3e
       -0.1948893 0.24149205 -0.18551262 0.38402534
000160 79 fb 9f 3e 76 d7 df 3e a7 18 03 be 3c ac 98 3e
       0.31246546 0.4371907 -0.12802373 0.29818904
000170 8d 37 91 3e a1 99 b4 be 49 4b 73 be d4 84 92 3e
       0.28362694 -0.3527346 -0.23759188 0.28616965
000180 7f 86 11 3e a1 7f 9c bd d1 cf a0 3e 9b da dc bc
       0.14211462 -0.07641531 0.3140855 -0.026959708
000190 9d 21 95 3e 1f a0 29 b9 fe 25 b6 3e 4a 56 9c 3e
       0.29127207 -0.00016176746 0.3557586 0.30534583
0001a0 05 b1 0d bf 1a c8 f3 3e 0e e9 0b 3f 3d 12 25 3d
       -0.55348235 0.47613603 0.5465249 0.040300597
0001b0 f0 01 97 3e 95 d2 da 3e 38 06 1f bd 87 aa 09 3f
       0.29493666 0.42738786 -0.03882429 0.5377583
0001c0 a1 3b dc be 65 1e 3f bf 31 bb 9a bd f0 56 f8 be
       -0.43014243 -0.74655753 -0.07555235 -0.48503828
0001d0 89 76 5a 3e e2 e8 81 bd c7 6b 6f 3e a7 be d6 3e
       0.2133428 -0.06343247 0.23380958 0.4194233
0001e0 eb dc 55 be fd 46 f6 3e e7 c4 83 3e e6 9f d4 be
       -0.20885055 0.48101035 0.25736162 -0.41528243
0001f0 d9 3e da bd 18 2a 58 be 39 bd 58 3d f0 76 99 3e
       -0.106565185 -0.21109807 0.05291483 0.29973555
000200 82 2e 8f be 3f b3 ba be 3c 24 ce be f0 96 fe be
       -0.2796517 -0.3646488 -0.4026202 -0.4972453
000210 f8 4f 3c be f6 21 d3 3d c1 e1 dd be 1e b8 89 3e
       -0.1838988 0.10309212 -0.433363 0.26898283
000220 54 fa b5 3e 6e dd cb bd 55 3f 1b 3f fe 6c 96 3e
       0.35542548 -0.09954344 0.6064351 0.2938003
000230 1d 08 bc 3d ac c4 ae 3d 13 96 7f bd e3 00 28 bf
       0.09181235 0.08533606 -0.06239898 -0.65626353
000240 3e 25 ab be f7 2e fa be 33 a2 28 bf 63 d8 4e be
       -0.3342685 -0.48863956 -0.65872496 -0.20199732
000250 c2 53 76 3d 17 ce 25 be d1 63 aa 3e 31 31 c8 3d
       0.06013847 -0.16191898 0.3327928 0.097750075
000260 48 46 af bd 69 01 03 bf bb a5 fe be 11 45 d7 be
       -0.08558327 -0.51174027 -0.49735817 -0.4204488
000270 c4 57 94 39 5c de 30 3e e4 f9 02 3f 00 e5 0d 3e
       0.0002829415 0.17272323 0.5116255 0.13856888
000280 82 fd 5c 3d 18 c3 00 3f 94 17 19 bf ef 88 f5 3d
       0.0539527 0.5029769 -0.598016 0.11989009
000290 1a 9e f0 8d d2 96 37 00 41 ba ba 3e 43 83 28 bb
       -1.4829204e-30 5.105056e-39 0.36470225 -0.0025713004
0002a0 91 00 eb bd e1 37 6f bc ad cd da bd 6c df 97 be
       -0.114747174 -0.014600725 -0.10683761 -0.29662645
0002b0 7a 0b 67 be 63 c6 22 bf 86 37 05 3f 77 f2 32 3e
       -0.22562972 -0.63583964 0.5203785 0.17475305
0002c0 cc f0 0d be 39 1a 53 be e6 6f c1 be 0b 53 61 be
       -0.13861388 -0.20615472 -0.37780684 -0.22004335
0002d0 1d e5 01 20 e3 ec c9 ab 31 95 19 3d 64 45 80 be
       1.1002532e-19 -1.4347658e-12 0.037495796 -0.2505294
0002e0 d7 14 20 bf ad 16 1c bd 6d 2f 01 3e 14 93 95 3e
       -0.625318 -0.038107563 0.12615748 0.29213774
0002f0 1d 42 10 bf f3 56 ed bd a9 d3 15 3f 24 1c f9 bb
       -0.5635088 -0.1158885 0.5852609 -0.0076022316
000300 95 57 23 3d fc 24 50 3e e7 bd e5 3e f4 5e 06 3f
       0.039878447 0.20326608 0.44871446 0.52488637
000310 90 84 66 3c ce 72 04 3f 6e a9 93 af 79 bc 13 8c
       0.014069691 0.5173768 -2.685953e-10 -1.1381184e-31
000320 a1 95 a6 3e 2b 32 d8 be 1d 1a e7 be b5 f2 f4 be
       0.32536033 -0.42225775 -0.4513711 -0.4784142
000330 23 0a b7 be ff fa 35 3e 17 3a 52 3d f0 4d 3c be
       -0.3574992 0.17771529 0.05132493 -0.18389106
000340 4c 1b 18 be 23 20 0a bf e4 c3 96 be f7 1c 0c 3f
       -0.14854163 -0.53955287 -0.29446328 0.54731697
000350 db 19 a6 bd 3a 22 a5 3d d1 f0 5b be ab 02 8c be
       -0.081104 0.08063169 -0.21478583 -0.27345785
000360 a0 b9 be 3e f6 29 13 be 9c 0f 9c bd 29 80 07 3f
       0.37250996 -0.14371476 -0.07620165 0.5292993
000370 2b 9b 8d bd ec 8f ff 3d e0 f9 64 be 8a 3a d2 3e
       -0.069143616 0.12478623 -0.22360945 0.41060287
000380 cf e6 c7 bc 68 c8 6e 3e 8d 20 12 bf 34 50 03 3d
       -0.02440205 0.23318636 -0.5708092 0.03205891
000390 3f d4 6a 3e a0 35 f3 be d1 32 9f 3e 66 63 54 be
       0.22932528 -0.4750185 0.31093457 -0.20741042
0003a0 7b 94 9f be d2 41 9a 3e e1 5e 2a be bf bc e5 3e
       -0.3116797 0.30128342 -0.16637756 0.44870564
0003b0 cc 61 bd 3e ca 15 c1 bc 9b 39 79 3e a9 e0 a1 be
       0.36988676 -0.02356996 0.24338381 -0.31616715
0003c0 1d c4 c6 be 53 32 94 bd fe ad cd 3e 42 af cf 3e
       -0.38821498 -0.07236161 0.40171808 0.405634
0003d0 54 90 e8 3e 9c 15 25 be df d3 c0 be 4d 8b d5 3e
       0.45422614 -0.16121525 -0.37661645 0.4170784
0003e0 69 ef 84 3e b3 db 1e 3f e0 96 0b 3f 86 8b c2 be
       0.25963905 0.62053984 0.5452709 -0.37997073
0003f0 e4 8c da 3e cb f0 0e 3f 08 86 48 be 03 75 c4 be
       0.42685616 0.5583617 -0.19582379 -0.38370523

decoder_lin.0.bias f4 [128]
000000 b4 13 7e be a9 b6 8d be 8d 3c a6 3e b2 25 01 3d
       -0.24812204 -0.2767842 0.32468072 0.03153009
000010 c7 12 59 bd fe 6b f5 bd d3 ae d4 3e 2d 15 d9 3d
       -0.052996423 -0.119834885 0.4153963 0.10599742
000020 c1 0a 9e be 33 75 60 3e 28 53 7c be 96 5b a4 3e
       -0.3086758 0.21919708 -0.24641097 0.32101125
000030 7d 67 b8 be c9 39 10 3e b8 5a 74 3e 52 3f d5 3e
       -0.36016455 0.14084543 0.23862731 0.41649872
000040 92 9e 62 bd f0 81 9a 3e 16 bd 65 3b 2f 1b de 3e
       -0.055327006 0.3017726 0.003505533 0.43380114
000050 da 3a 51 bd 9b 2b fd be 2b 08 0a bd c7 f8 8e 3d
       -0.051081516 -0.4944733 -0.033699196 0.06981044
000060 0d 9e c9 3d c8 7c 83 be a5 62 2d be ec 72 fe 3d
       0.09844599 -0.25681138 -0.16932161 0.12424263
000070 93 69 14 3e 7a 40 04 3f 80 83 c3 bd 59 2e d5 3d
       0.14493398 0.51660883 -0.09546566 0.10409231
000080 44 27 71 be a4 dc 02 bf 56 52 39 ba 84 01 53 bd
       -0.23550135 -0.5111792 -0.0007069459 -0.051515117
000090 57 24 d5 3e 91 c8 b3 be 0e 9a d5 be 3d 4b 52 be
       0.41629288 -0.35113958 -0.41719097 -0.20536514
0000a0 47 a4 dc bb 4f 32 a5 3e 09 50 bb 3e 1c 94 a6 bd
       -0.0067334506 0.32264945 0.365845 -0.08133718
0000b0 1d 20 8f 3e 3b 44 92 3e 72 9b 9c bd f8 47 9a be
       0.27954188 0.2856768 -0.07646836 -0.30133033
0000c0 74 ef 9e 3d 91 30 a8 be cd 26 01 3f ee c5 54 3e
       0.07760516 -0.32849553 0.5044983 0.20778629
0000d0 60 9b a8 bc 77 88 c3 bd af 41 1c bd 2d 91 97 3d
       -0.020581901 -0.09547513 -0.03814858 0.07400737
0000e0 d7 c7 f4 be 2c 27 19 bf b2 3b 27 3d 1f b7 82 be
       -0.47808716 -0.59825397 0.040828414 -0.25530335
0000f0 33 52 d6 be 57 7e 83 3d 58 77 c0 3e e5 ee dd be
       -0.41859588 0.06420582 0.37591052 -0.43346325
000100 14 64 17 3d 06 5d 8a 3e 94 e8 b7 3e 37 6a 63 3e
       0.036960676 0.27024096 0.3591963 0.22208486
000110 cc 5f 68 3d 5b 9c 1b be 78 99 de 3e 78 cf 8d be
       0.056731984 -0.15196364 0.43476462 -0.2769735
000120 6c 26 48 3d 9d 38 48 be 6b 91 04 3d 88 f4 c2 be
       0.048864767 -0.19552846 0.032365244 -0.38077188
000130 e5 61 72 bd d4 53 23 be 19 bc b5 3e b7 05 93 3d
       -0.05917539 -0.15949947 0.3549507 0.071788244
000140 e1 28 38 3e 4f 3e e7 bd 18 97 b5 ba 9c f5 be be
       0.17984344 -0.11291181 -0.0013854234 -0.3729676
000150 45 82 f4 3d b8 11 08 3f d6 a0 ab be 30 18 bd bd
       0.119389094 0.53152037 -0.33521146 -0.09233129
000160 8b 40 68 3e 3f e7 0a 3f 41 58 c4 b8 6c 90 8c be
       0.22680871 0.54259104 -9.362447e-05 -0.27453935
000170 b0 af ea be d3 1e 2c 3e 9b ea 0d bd 82 c1 e2 bd
       -0.45837164 0.16808634 -0.034647565 -0.11072065
000180 40 73 d2 3e 09 04 7a bd 19 45 90 be a7 ea 1a ba
       0.41103554 -0.061039004 -0.28177717 -0.00059096
000190 d2 0a 11 3f c7 79 53 3d ad 2e 9d 3e d2 bd ea bd
       0.56657135 0.051629808 0.30699673 -0.114619866
0001a0 1f b8 08 be 0d 78 0a 3e ea 4a aa 3e 55 55 f9 3c
       -0.13351487 0.13522358 0.3326028 0.030436197
0001b0 f3 66 bb be c2 b0 12 be 93 7c 34 be 57 0d 9a 3e
       -0.36601982 -0.1432524 -0.17625646 0.30088302
0001c0 0e e6 d0 be d8 03 21 bd 08 95 0d be 1a 85 07 3f
       -0.40800518 -0.039310306 -0.13826382 0.5293747
0001d0 41 1f 87 3d cb bc db 3e 48 c8 b3 be b1 9e ac 3d
       0.06597758 0.42917475 -0.3511374 0.084287055
0001e0 b5 f1 3e 3c 1e 37 62 be bc 1e fa 3d b8 6b db be
       0.011654307 -0.22091338 0.12212893 -0.4285562
0001f0 c3 75 a7 3d 8f 4a c6 be a7 82 74 bd 23 bd da be
       0.08176758 -0.3872876 -0.059694912 -0.42722425

decoder_lin.2.weight f4 [288, 128]
000000 a0 f8 ec 3c dc 59 0d bd d3 14 b7 3c c0 02 c4 37
       0.028927147 -0.034509525 0.022348797 2.3366301e-05
000010 69 c0 5b bc 71 05 98 3b 2c 41 36 3c a2 e9 44 3d
       -0.013412573 0.0046393205 0.011123937 0.048074372
000020 9e 54 15 3d fe 98 84 3d 6d 70 fc 3b 9e 2b 67 3d
       0.03645765 0.064744934 0.007703832 0.05643808
000030 fe c0 5b 3d d6 8f 86 bc b4 c7 60 3d 6b b2 9e 3d
       0.05365085 -0.016426008 0.05487795 0.07748874
000040 72 42 aa bb 1b e9 02 bd d2 7c 31 bd 6e 98 78 bd
       -0.005195909 -0.031960588 -0.04333193 -0.060692243
000050 a9 56 00 b4 29 41 5d 3d 02 b4 de bc fa ae e8 bc
       -1.1952456e-07 0.05401722 -0.027185444 -0.028403748
000060 66 6a 10 3b 01 ff a7 bd 6e 7d c4 3c 6f 3d e8 bb
       0.0022036075 -0.08202935 0.02398559 -0.0070874016
000070 da fe 0f 3b 9d 9e 13 bd e6 a2 0f 3c a5 a5 b5 3b
       0.0021971972 -0.036039937 0.008766865 0.005543428
000080 c8 79 3e 3d 5c 9a a7 bb ab aa 70 bc d5 7f 58 bd
       0.04650286 -0.0051148366 -0.014689128 -0.052856285
000090 7a 78 7d 3d bc 6d 56 3c 5b e4 86 3c 37 c6 40 3b
       0.061882474 0.013087686 0.01646631 0.002941502
0000a0 0a bb 84 bc cb 82 61 3d fc 88 a3 3c 67 23 76 3d
       -0.016202468 0.055056375 0.01996278 0.060092356
0000b0 85 65 85 bc 17 f7 a9 bc f0 86 8b bd 2f 14 32 3c
       -0.01628376 -0.020747704 -0.06812847 0.01086907
0000c0 26 0d 86 3c e6 73 18 3d d7 bc f4 bc 2e 69 0f 3d
       0.016363692 0.037219904 -0.029875202 0.035012417
0000d0 5c 9e c9 3c 31 93 5d 3c 10 a7 a2 bc 2c 95 0d bd
       0.024611644 0.013523863 -0.019855052 -0.03456609
0000e0 3b b6 76 3c 0e 78 0f 3c d5 63 3f bd 8e 31 68 bc
       0.015058096 0.008756651 -0.046726067 -0.014171971
0000f0 73 6f 8a bb 4c f0 16 3b 60 13 ca bb fc 95 11 3c
       -0.0042247116 0.0023031412 -0.0061668605 0.008885857
000100 f7 9c 0e 3d 28 1c 93 3d ad dd 0c bd d0 7b 79 3d
       0.034817662 0.07183105 -0.034391094 0.060909092
000110 45 32 6f bd ff 88 a9 bc 00 3b 09 bd 93 3a 13 bd
       -0.05839755 -0.020695208 -0.033503532 -0.035944533
000120 19 96 89 bb cc a3 1e bd 90 93 18 3d 90 6f 68 3d
       -0.0041988012 -0.038730428 0.0372501 0.05674702
000130 69 a0 38 bd 0b 3b 0c bc c4 df 2a 3d e6 c4 52 3c
       -0.045074854 -0.008558999 0.041717306 0.012864327
000140 2b aa 02 bc c6 99 79 bd 19 e9 69 01 02 62 1c 3d
       -0.0079751415 -0.060937665 4.296258e-38 0.038179405
000150 e3 82 82 3d 4d 4b e7 3c f4 ad 39 3d 43 80 8d bc
       0.06372621 0.028234148 0.04533191 -0.017273074
000160 43 f9 d7 bc 9d 64 88 bc c8 fc 6b 80 6b 12 f3 3c
       -0.026363974 -0.016649539 -9.917079e-39 0.029671868
000170 30 ca 82 bc 92 bb a9 bb ad 3d 17 3d 9d fd 0b 3c
       -0.015965551 -0.005179831 0.036924053 0.008544353
000180 86 b9 85 3d dd 32 24 bc 68 b6 fe bc 0a d1 23 81
       0.065295264 -0.010021892 -0.031092837 -3.008835e-38
000190 eb 8c 06 3d a2 c2 b0 3c 8f aa 0f 3c e8 4b f6 3b
       0.032849234 0.021577183 0.008768692 0.007516373
0001a0 8e 4c 9e bd 3a 9e 2d bb d7 28 19 bd 8a ac 52 bd
       -0.077294454 -0.0026492015 -0.037392464 -0.051434077
0001b0 d3 3c 0b 3d bf 49 82 3b 40 24 90 3b 30 e4 f3 bb
       0.033993553 0.0039760764 0.0043988526 -0.0074429736
0001c0 87 c2 be 3b a7 c5 34 bc f6 4f b4 bd 64 66 17 3d
       0.0058215293 -0.011033452 -0.08804314 0.03696288
0001d0 af 2e 32 bd fb 53 c3 3d 3a 0e f2 3c 0d f4 41 3d
       -0.043501552 0.095375024 0.0295478 0.047351886
0001e0 9d 41 1b 3d d9 8a 69 3c c8 7d 12 3c 4f 4c a1 3c
       0.03790437 0.014254295 0.008941121 0.019689707
0001f0 d5 b5 71 3b 1e 3d 27 3d 89 e3 da bb 7a 78 4e 3c
       0.0036882062 0.04082977 -0.0066799563 0.012601966
000200 48 87 7b 3d 08 e5 1d bc 0d a1 fd 3b 7a 6f e9 3c
       0.06140831 -0.009637125 0.007740146 0.028495539
000210 d9 47 ac bc 5c 66 a8 38 60 ea a9 bc f0 a5 2d 3c
       -0.021030353 8.02993e-05 -0.020741642 0.010598645
000220 37 67 91 bd 5d 67 86 bc a5 82 37 3d 77 6e 65 bc
       -0.07099765 -0.01640671 0.044802327 -0.014003388
000230 94 67 49 3d 09 18 e8 bb 7e 68 f8 3b 1f 5e c2 3c
       0.049171045 -0.0070829433 0.007580816 0.023726521
000240 15 3b d8 3c 77 e6 99 3c d2 3a 10 bc ce 79 8f 3a
       0.02639536 0.018786652 -0.008803086 0.0010946335
000250 48 49 cd ba 98 66 a8 bd 76 38 58 3b d4 43 ab bc
       -0.0015662098 -0.08222693 0.0032992638 -0.020906366
000260 7a 94 13 3c 35 71 75 3b 3d 1a 81 ba 1c cf 15 bb
       0.009007568 0.003745151 -0.0009849739 -0.0022859043
000270 84 b4 3f bd 2d 04 58 3c 85 ae da 3c 46 72 b8 3b
       -0.046803012 0.013184589 0.026694546 0.005628857
000280 00 63 4b bd e7 da 86 bc 8e 7a fa bc d8 fd d1 3c
       -0.04965496 -0.016461803 -0.030576017 0.025633737
000290 7c 0a da bc 77 3e 50 bd d1 25 68 bd ad ae 27 bd
       -0.026616327 -0.05084082 -0.05667669 -0.04093807
0002a0 06 d8 cf 3c c9 78 39 bc be 68 aa 3b 81 e5 e5 bb
       0.025371563 -0.011320301 0.0052004745 -0.0070158844
0002b0 99 33 01 3d 46 54 5e 3c be 20 2f bd 64 92 47 bb
       0.031543348 0.013569897 -0.042755835 -0.0030452246
0002c0 2c c2 71 bd 98 5a ee ba d8 1c 2b bd c1 aa a5 3c
       -0.059023067 -0.0018184958 -0.041775554 0.020223023
0002d0 36 74 6e bc aa 5a aa bd 9e df 08 3d a9 cd d6 3c
       -0.014554074 -0.08318074 0.033416383 0.026221113
0002e0 9e e5 94 3d 80 c5 01 3d 61 ba 58 bb 5f d5 bc 3b
       0.072703585 0.03168249 -0.0033070075 0.0057627405
0002f0 0c 4e 28 3d 2c 54 0f bd c3 26 28 bc 70 01 34 bd
       0.041090056 -0.034992382 -0.010263148 -0.043946683
000300 06 f7 27 3c 3e 12 03 bc db ea e3 3a 7d c5 8d 3c
       0.010251766 -0.007999955 0.0017388718 0.017306084
000310 0b 90 b7 bb 8a 33 92 bd ad 90 c2 bc 8f 1e a2 3c
       -0.005601888 -0.071387365 -0.023750627 0.019789962
000320 e1 fc 76 3c 03 a1 df 3c b8 11 20 bc 04 51 2c bd
       0.0150749395 0.027298456 -0.0097698495 -0.04206945
000330 87 1f be 3c 01 3e 22 3d 19 ac 70 ba df 36 0d bd
       0.023208393 0.039609913 -0.0009180918 -0.034476157
000340 bb ae 1d 3d 42 48 90 3c 4e 4a 85 01 4f db a3 ba
       0.038496714 0.01761258 4.8963106e-38 -0.0012501272
000350 6b 54 28 3b f9 2e 65 bc a1 83 60 3d f3 0b 8b bd
       0.0025685083 -0.01398825 0.05481303 -0.067893885
000360 d4 c9 14 bc 70 ea 75 bb 67 95 10 81 bf 6f 4e ba
       -0.009081323 -0.003752377 -2.6555814e-38 -0.0007874928
000370 29 17 f5 bc 72 72 f5 3c 20 9c 70 3c ac 59 a9 bd
       -0.02991827 0.029961798 0.014685661 -0.08269057
000380 82 70 4e bb 45 2e 1d bc 61 b0 e7 3c 33 d7 b1 81
       -0.0031500165 -0.009593551 0.028282346 -6.5328327e-38
000390 2f 2a ac bc 79 f9 7c 3c 9a a8 35 3c f5 d8 ad bc
       -0.021016208 0.015440338 0.011087561 -0.021221617
0003a0 5f 3a e4 3c 25 cb 8d bc 2e 8b 95 bb d5 40 91 3c
       0.027859865 -0.01730878 -0.0045637107 0.01773111
0003b0 2e 9d ad bb 23 50 1e 3d 8d fc 4e 39 10 58 10 b8
       -0.0052982783 0.038650643 0.00019739773 -3.441429e-05
0003c0 28 45 f3 bc e8 3d 25 3b c7 3b 25 bd 6b 6a 18 bd
       -0.029696062 0.00252139 -0.04034021 -0.037210863
0003d0 30 36 eb bb 50 1f 52 3b d2 17 a8 ba d3 da d8 bc
       -0.0071780905 0.003206212 -0.0012824482 -0.026471531
0003e0 35 20 29 3c 8e 77 49 bd f5 89 36 bd 6d 97 42 bb
       0.01032262 -0.04918628 -0.04456516 -0.0029692308
0003f0 85 80 22 3d 84 35 8f 3c 10 1e 58 3c a3 95 54 3d
       0.039673347 0.017481573 0.013190761 0.051900517

decoder_lin.2.bias f4 [288]
000000 ec 42 c2 3c 36 65 a4 bc 69 af e8 3a 4a a6 8c 3d
       0.023713551 -0.020067792 0.0017752472 0.068676546
000010 61 c0 28 bc d5 f7 95 bd 49 5d 49 bc 1d bf 84 3c
       -0.010299773 -0.07322661 -0.012290307 0.016204411
000020 0c fb e2 3c 82 ed 9d bc 94 8e dd 3a b1 2b 7f b1
       0.0277076 -0.019278292 0.0016903454 -3.713222e-09
000030 8e a1 1a 3d d4 83 28 bc 26 7a 3d bc 22 83 c3 b9
       0.037751727 -0.0102853365 -0.011564767 -0.00037291
000040 54 6d 03 3d 3a ae 0c bb 87 5c 32 a6 3d da 20 3c
       0.032086685 -0.0021466152 -6.1881554e-16 0.009817657
000050 80 10 a2 3c d3 90 c9 bb cc d9 df bb 92 10 87 3c
       0.019783258 -0.0061512976 -0.0068313833 0.016487394
000060 0b 1a c5 bc 73 5f ad bb a6 63 19 3d 66 4e 51 b8
       -0.02406027 -0.0052909194 0.037448548 -4.9902497e-05
000070 8e d9 12 bb 02 20 0b b7 44 c3 e6 bc ac 97 d2 3c
       -0.0022407505 -8.292498e-06 -0.028169282 0.025707088
000080 30 a2 a4 3c 9a 0a 12 bd e0 bd 52 3c b4 fa 79 3d
       0.020096868 -0.03565464 0.012862653 0.061030105
000090 de d7 a1 3c f9 19 b9 3d 59 82 57 bc da ef e4 b9
       0.019756254 0.09038157 -0.013153636 -0.00043666252
0000a0 ce 7f 7e bd e9 0b 13 bd db 78 da b0 75 b5 a8 3c
       -0.062133603 -0.03590003 -1.5895937e-09 0.020594338
0000b0 70 cf 37 bc f5 fe 5c 3d 8c d3 cb bb f2 99 03 a1
       -0.011218891 0.053954083 -0.0062202867 -4.458827e-19
0000c0 d9 17 eb b9 12 ff cd 3d d6 6d 4b 3d 76 12 32 3c
       -0.0004484046 0.100584164 0.049665295 0.010868659
0000d0 a1 00 cd bb ec a2 82 ba 72 e6 55 3d 35 09 a8 bc
       -0.0062561785 -0.0009966767 0.052221723 -0.020512203
0000e0 94 e3 2d bd e0 e6 a2 bc 85 c2 6b b4 82 d7 de 3b
       -0.042453364 -0.01988548 -2.1956846e-07 0.006800593
0000f0 bf 68 f3 3b c2 c1 23 bc e6 6a 09 bb 1c 4f e6 3b
       0.007428258 -0.009994926 -0.0020968257 0.0070284735
000100 e3 ad 83 3d 77 83 20 bc af cf 9b 3d c9 d6 70 bb
       0.06429651 -0.009796969 0.07607972 -0.0036749116
000110 d7 7e 8a bd 7f d1 49 bd f8 12 9d 3d 90 ca a6 bc
       -0.06762474 -0.049272057 0.076696336 -0.020360261
000120 17 cc c3 3c ae ad a4 3d ea df 00 3d 7e c2 f4 ba
       0.023901029 0.08040939 0.03146354 -0.0018673686
000130 17 3f d5 3c 9b de 3e b2 35 b9 71 ba e3 5f ed bb
       0.02603106 -1.111007e-08 -0.00092210184 -0.0072440966
000140 55 b3 8c 3d 3d 12 b1 3d 99 29 79 bd d8 27 ae 3d
       0.06870142 0.08646057 -0.060830686 0.08503693
000150 13 37 62 bd 67 99 48 bc 38 ed fa ac db fa 64 bb
       -0.055228304 -0.012243605 -7.131764e-12 -0.003493956
000160 ec 5b 4e 1c b2 49 c2 bb 5d 0e 34 3d b8 d1 07 3d
       6.827849e-22 -0.0059291953 0.04395901 0.033158988
000170 86 f1 25 aa 66 07 b5 b1 43 4b 50 3d a5 e5 33 3d
       -1.4738739e-13 -5.2686344e-09 0.050853025 0.043920178
000180 91 3b d0 bc f6 86 cd 3c dd 8f e1 bb ad 66 a0 3d
       -0.025419028 0.025088768 -0.006883605 0.07832084
000190 20 02 a0 bc 2f 89 bb bc 79 7c ca b6 01 51 3b 3d
       -0.019532263 -0.022892563 -6.0345596e-06 0.04573155
0001a0 ff c0 5f bc 18 2f 1e a3 b6 9f 3c bc 86 2f d8 bc
       -0.013656854 -8.57517e-18 -0.011512687 -0.026389848
0001b0 24 15 d9 b4 af 24 69 3d 9b 06 c1 bc 47 6c 94 ba
       -4.0434782e-07 0.05691975 -0.02356272 -0.0011323773
0001c0 53 81 75 bb 0e 85 23 bd fb 79 59 3d a3 d5 93 3d
       -0.0037461116 -0.039921813 0.053094845 0.07218482
0001d0 e9 09 cc bc 2b 38 b5 3c 42 59 ad bc 40 2f 38 3d
       -0.02490707 0.02212151 -0.021160726 0.044966936
0001e0 b7 c1 87 bc 35 7e 33 bd a3 14 7b bc 96 c4 66 bc
       -0.016571863 -0.043821532 -0.015324744 -0.014084956
0001f0 89 56 67 bc 0e 00 c2 bb 03 d3 ae ab b9 06 52 bc
       -0.014119753 -0.0059204167 -1.2422011e-12 -0.012818986
000200 80 c0 82 bc 15 bd f1 3c 48 8c e0 bb c9 d9 4a bd
       -0.015960932 0.029509107 -0.0068526603 -0.049524102
000210 f7 63 da bb cb d7 4d 3c c2 73 fa bc d8 71 00 3d
       -0.006664749 0.012563656 -0.030572776 0.03135857
000220 d1 29 98 bd af 56 49 bd dc dd 32 3c fb 7d 3a 3d
       -0.07429851 -0.049154934 0.010917153 0.0455303
000230 c1 b2 70 bb 67 98 41 bd 6c 0b d7 bb a1 b2 47 3c
       -0.003672764 -0.047264483 -0.006562641 0.012188585
000240 f8 20 a2 bb 44 e6 79 bc ff cc 56 3c be b9 4a bc
       -0.004947778 -0.0152526535 0.013110398 -0.012373386
000250 6f 46 4d bd 10 25 0b b2 83 31 bd 3b 17 b0 a0 3d
       -0.050116 -8.099292e-09 0.0057737245 0.078460865
000260 41 e2 30 3c f2 d6 c9 3c 28 92 19 3c 3a 72 77 bb
       0.010796131 0.024638627 0.009373225 -0.0037757293
000270 d0 88 d7 3c 16 7c 56 bd 28 00 05 bb 0e b0 ea aa
       0.026310354 -0.05236443 -0.0020294283 -4.1688913e-13
000280 49 15 0d bb 18 51 48 3d b0 66 22 3a 32 d2 ec bb
       -0.002152758 0.048905462 0.0006195111 -0.0072272057
000290 24 66 94 bc a4 b4 cd 3b 4f e4 08 bc 01 42 70 3b
       -0.01811511 0.0062776376 -0.008355214 0.0036660435
0002a0 e8 64 6f 3d 6d 0a 16 3d 92 33 09 bd 74 26 2d 3c
       0.05844584 0.036631037 -0.033496447 0.01056825
0002b0 37 d6 00 3c 78 64 5c b9 f9 a0 00 3c 3e 77 a5 b9
       0.007863573 -0.00021018262 0.007850879 -0.00031560095
0002c0 56 84 ac 3b f9 3d 8f bb bd 1a 0b bd 23 e5 89 3d
       0.005264799 -0.0043714014 -0.033961046 0.067331575
0002d0 7a f2 07 bd 4c bb b8 b7 3d c3 8e af 92 6a 09 bc
       -0.033190228 -2.2021726e-05 -2.5968375e-10 -0.008387225
0002e0 ea 15 3f bc 9d 0c 0c 3c 10 19 90 bc f8 f2 8a 3d
       -0.01166294 0.008547929 -0.017590076 0.06784624
0002f0 55 0e 94 3a d0 7d c0 bc 35 7b 48 3d fb 8c 74 bb
       0.0011295775 -0.023497492 0.048945624 -0.0037315476
000300 b3 81 8e 3d e6 8f 75 bd 36 30 c2 bd 16 70 c6 bc
       0.06958332 -0.059951685 -0.09481852 -0.024223369
000310 83 82 5e 3d 7f f9 50 ba c4 f8 0e ba e0 d9 81 3c
       0.054323684 -0.0007971748 -0.0005453939 0.015850961
000320 e2 93 6a ba 51 c8 b5 bb c9 6e 54 ba 5b 54 90 3c
       -0.0008948428 -0.005547561 -0.00081036665 0.017618349
000330 46 96 59 3d f0 ac df 3b a1 1f 93 3d 69 bf 3a bc
       0.053121828 0.0068260357 0.07183767 -0.011398175
000340 11 de 79 bd 92 46 ce 3d 94 13 5d bd 96 76 13 bc
       -0.061002795 0.10072054 -0.05397375 -0.009000441
000350 bd be 05 3d 75 53 98 3d 9a 6c f6 3c b7 6e 07 bc
       0.032652605 0.07437793 0.030081082 -0.008266143
000360 75 04 af b4 95 ba 7b bd 59 0d a5 bb e5 8f 28 bd
       -3.2599533e-07 -0.061457235 -0.0050369916 -0.041152854
000370 5d 19 83 ba 75 79 85 3d 5d 99 dd bb 06 22 43 3c
       -0.0010002066 0.06517307 -0.006762667 0.011909967
000380 c2 f0 2c bd 39 33 58 bc f5 84 7f 3d 58 0f 90 bc
       -0.042221792 -0.013195806 0.062382657 -0.017585441
000390 f1 eb 6d bd 2e ab 69 bd e1 3f 45 bc 71 b9 05 3d
       -0.05808634 -0.057048015 -0.012039156 0.032647554
0003a0 41 5d fa b8 5e a9 1d bc 3e 25 93 bb df d6 01 bc
       -0.00011938299 -0.0096229 -0.0044905236 -0.007924764
0003b0 0c 9e d1 3d 41 fa a4 bb 99 67 a1 bc 00 df 28 bd
       0.10235223 -0.0050347154 -0.01970272 -0.041228294
0003c0 ad 1b e2 3b 27 92 5f bb 28 83 bd bc 29 ac 62 b9
       0.006900272 -0.0034114213 -0.02313383 -0.00021617174
0003d0 df a7 d7 b3 31 6a 02 ba 77 83 09 3d 5c 8b a8 3d
       -1.0042253e-07 -0.000497493 0.03357264 0.08229706
0003e0 68 1e 7f bd b1 69 42 3c 27 4c 76 3d 02 b5 92 3b
       -0.062284857 0.011866019 0.06013122 0.004477144
0003f0 86 70 bf 3c c8 74 10 3c b3 ee 96 3d f9 97 d1 bc
       0.023369085 0.008816905 0.07369747 -0.025585162

decoder_conv.0.weight f4 [32, 16, 3, 3]
000000 22 03 7f 3d be fa 4e 3d 99 1f 27 bb c8 92 80 3d
       0.062258847 0.050532095 -0.0025501011 0.06277996
000010 14 6d 5f 3c cc 5b 33 3d f0 9d b1 bb 13 07 51 bb
       0.013636846 0.043788716 -0.005420439 -0.0031895086
000020 1b e7 8b 3c 8d c9 11 bc 16 68 96 bd b8 99 7a bd
       0.017077973 -0.008898151 -0.073440716 -0.061181754
000030 35 d6 af bb 2c 45 c7 bd ad 79 85 bc af 10 96 bc
       -0.0053661116 -0.0972999 -0.016293371 -0.018318502
000040 4a 88 46 bd 39 c9 ed bc d5 23 a1 3c 54 86 d1 3d
       -0.04846982 -0.029026615 0.019670406 0.10230699
000050 51 49 50 3d 1a 82 55 bd e7 b6 da 3b aa 28 16 3d
       0.05085117 -0.052126028 0.0066746357 0.036659874
000060 82 cb 2e bd 89 2b 75 bc 1c 19 0c bd 4a 85 11 bd
       -0.04267455 -0.014963993 -0.034203634 -0.035527505
000070 61 b7 a3 bb e5 f1 30 bd 9d 86 85 3d ff 77 b8 bd
       -0.0049962257 -0.04319944 0.06519816 -0.090072624
000080 2c 43 e6 bc ce 5a c5 bc c2 80 7f bd 76 dd 4b 3d
       -0.028108202 -0.02409115 -0.062378652 0.04977175
000090 7c 60 bb 3b 98 12 12 3d ac b2 8c bd 54 1c 2b 3d
       0.005718289 0.035662264 -0.068700165 0.041775063
0000a0 86 f4 71 bc 50 04 07 be c2 fd 84 3b 59 fc 37 bd
       -0.014767772 -0.13185239 0.0040585706 -0.04491839
0000b0 4b 4d 55 3d bc 55 97 bd 21 42 97 bc 8d 1e 89 bb
       0.052075665 -0.073893994 -0.01846415 -0.00418455
0000c0 30 5a 06 3e 4d 17 8d 3d e4 7e 15 bc a4 05 50 bd
       0.13120341 0.0688921 -0.009124491 -0.05078663
0000d0 f2 9d 14 3d 6e ab f4 3c 4f 4c 18 3d b5 7c 88 bc
       0.03628344 0.0298669 0.03718215 -0.016661027
0000e0 48 21 8d 3d 82 03 59 bd d3 04 0f be 13 eb 2f bc
       0.068911135 -0.05298186 -0.13966684 -0.010737198
0000f0 54 9f 4d bd e2 75 5e 3c 84 1c 8f bd a6 fe 24 bd
       -0.050200775 0.01357791 -0.06987861 -0.040281914
000100 f0 84 4f 3d ed 77 78 3b 1c 1d 91 3d db 83 94 bd
       0.05066389 0.0037913278 0.0708563 -0.07251712
000110 52 47 4b 3d 9f 0e c7 bc d8 95 be bd 76 b9 01 bb
       0.049628563 -0.024298964 -0.09305924 -0.0019794381
000120 38 3c f5 bc 12 7d 57 3d 25 d5 07 3d c6 d6 ee 3d
       -0.029935941 0.05260951 0.033162255 0.116620585
000130 b1 92 60 bc a8 db 8b bc b9 e9 80 bd a4 af 0d bd
       -0.013706849 -0.017072514 -0.06294579 -0.034591332
000140 cb 65 32 bb d3 46 1e 3d f8 31 d2 3d da d1 8d bd
       -0.0027221318 0.038641762 0.10263437 -0.06924792
000150 3c e3 b0 bc 51 cd 0c b9 a9 a0 15 3d 45 58 e0 bc
       -0.021592729 -0.00013427927 0.03653017 -0.02738584
000160 6c 84 86 bd 89 6a 2b bd 74 8e 80 3d ab 08 2d 3d
       -0.06568226 -0.041849647 0.06277171 0.042244595
000170 34 1d 35 3d 74 25 44 bd 6b d9 a6 3c bd 71 8d bd
       0.044217303 -0.04788728 0.020367345 -0.069064595
000180 19 b0 c8 3d be fa 08 bd fb b7 14 bd 06 07 ae bb
       0.09799213 -0.03344225 -0.03630827 -0.005310896
000190 f3 23 3c bd 69 04 e7 bb 1c bb 0b 3d e1 47 c5 bd
       -0.04593272 -0.0070500863 0.03411399 -0.096328504
0001a0 5a 7a a4 3c 66 cf 96 bc 01 21 20 3d b1 1b cd 3c
       0.020077873 -0.018409442 0.039093975 0.025037618
0001b0 c1 f1 10 3d 28 77 ae 3c 0e 70 2c 3d 3f 0b fa 3d
       0.035386804 0.021297053 0.04209905 0.12209176
0001c0 3e 1a 36 bd fd c4 b5 bb e0 52 03 be a3 c8 81 3b
       -0.04445862 -0.0055471645 -0.12824583 0.0039606853
0001d0 ba 93 45 bd f1 8e 5a bc 1c 42 b5 bd 98 a2 ef bd
       -0.048236586 -0.013339744 -0.088505 -0.11700934
0001e0 cf 26 23 3d ed 13 20 3d 8e 36 69 3c df b5 01 bd
       0.039831933 0.039081503 0.014234198 -0.031667586
0001f0 12 a1 06 3d fe 00 52 bd 71 23 33 3d 2e ea 5c bd
       0.032868452 -0.051270477 0.04373497 -0.05393427
000200 84 c9 79 3d 60 c6 0b 3d ca d6 80 bc 73 45 71 bd
       0.060983196 0.034124732 -0.01572742 -0.058904123
000210 b1 57 00 3d 5b b0 f9 bc 90 9a 4c 3d 1d e4 55 bd
       0.03133363 -0.0304796 0.04995209 -0.0522195
000220 20 82 a1 3b 7b d2 ab bc 4f c4 78 3d 87 14 58 3b
       0.004928842 -0.020974388 0.06073409 0.003297122
000230 3c 20 1d 3d b7 24 78 bd 09 4b e3 3c 5f b2 50 bd
       0.03836082 -0.06058189 0.02774574 -0.050951358
000240 b9 0a 0a 3d 18 2c d6 3d cf 67 0a 3d 12 f8 54 bd
       0.033701632 0.10457629 0.033790406 -0.05199439
000250 63 2b 3a 3d 93 e4 1d 3d c7 11 96 bb bd 3b 3e 3c
       0.045451533 0.038548063 -0.004579756 0.011610922
000260 4f e0 e7 bc 7d f0 0e be 56 4d da 3b 48 10 9f bc
       -0.0283052 -0.13958926 0.006662051 -0.019416943
000270 99 14 47 3d 48 91 23 3d 76 88 5f bd f6 ca d8 3c
       0.048603628 0.039933473 -0.0545735 0.026463967
000280 22 7e 1b bc 16 dd b9 bc 75 0e 28 bd d2 b0 e2 bc
       -0.009490522 -0.02268843 -0.041029412 -0.027672205
000290 7b 89 0b bd b0 79 dc bc c5 10 5b 3c d9 dc fd bc
       -0.03406666 -0.026913494 0.013370697 -0.030989097
0002a0 73 a2 04 bd 4d 2d 5a be 19 b8 36 bd 2c b7 ab 3b
       -0.032381486 -0.21306343 -0.044609163 0.0052403416
0002b0 15 49 94 bd 8d 48 47 bb f6 ca 1b ba ee a1 67 3c
       -0.07240502 -0.0030408234 -0.00059430243 0.014137728
0002c0 8c 6f 72 bd ad c4 00 be 2b 2f 86 3d 6e 96 3a 3d
       -0.05918841 -0.12575026 0.06551965 0.045553617
0002d0 5a 15 7b 3d 0b 9b df 3c 8d 59 0b 3d c7 65 8a bc
       0.06129966 0.02729561 0.03402095 -0.016894234
0002e0 2d 90 72 bc ae 5a d9 bc 58 b9 88 3d f6 40 50 be
       -0.014804882 -0.026532497 0.066759765 -0.2033728
0002f0 75 35 05 3d f7 7d 11 3c 78 02 dc 3c 67 f7 bc bc
       0.032521684 0.00888013 0.026856646 -0.02306719
000300 e0 59 46 3d 7f 34 91 bd 31 df 32 bc 81 b1 9a 3b
       0.048425555 -0.07090091 -0.010917471 0.004720867
000310 bc 7c de bc 64 37 42 bd eb 0e 1d 3d 46 97 0d bd
       -0.027159087 -0.047416106 0.038344305 -0.034568094
000320 d3 a2 61 bd 3d 20 1a bd 35 98 a6 3d ac f5 e9 bc
       -0.055086922 -0.0376284 0.081345 -0.028559528
000330 b1 a2 89 bd 99 04 a1 bd 5c e6 9f bd c4 1d 0b bd
       -0.06720484 -0.07862205 -0.078076094 -0.033963934
000340 b0 1c 97 bd 61 ee 29 be e8 15 cf 3d bc b7 9a 3d
       -0.073785186 -0.1659484 0.101116 0.07554576
000350 ed ba 35 bd ec 0f 06 bd ee c9 98 3c ee a8 81 3b
       -0.04436772 -0.032730028 0.018650975 0.0039569056
000360 e3 5e bf bd f8 6a 5b ba da de 2f be a9 12 d8 3c
       -0.0934427 -0.00083701266 -0.17174855 0.026376085
000370 f5 5b 81 3c 67 83 e7 bd c3 b2 3c 3d 5b 16 eb bc
       0.015790919 -0.1130436 0.046068918 -0.028697183
000380 0b 49 d4 bd 64 9b 22 3c 49 a8 57 3d b2 27 ab bd
       -0.10365494 0.009924743 0.052650724 -0.08357181
000390 b0 61 67 bd 62 ce 68 3d f5 5c 89 3c 40 5e 0c bd
       -0.056489646 0.056837447 0.016767958 -0.03426957
0003a0 e3 52 e4 3c 59 e9 50 3d 38 26 95 bc 7e a9 1d 3d
       0.027871555 0.051003788 -0.0182067 0.03849172
0003b0 5d 7b b0 bd 9d 03 d1 3c 91 83 3b bc 7a e4 d9 3c
       -0.0861728 0.025514418 -0.011444942 0.026598204
0003c0 7e b7 c0 3d 70 04 79 bd 7a 72 72 3c 6d 65 5a bd
       0.09409998 -0.060795248 0.014797801 -0.053319383
0003d0 0b b9 dd 3c 55 9a 85 bd 48 12 04 3e b4 96 2f bc
       0.027065774 -0.06523577 0.12897599 -0.010717083
0003e0 c3 d2 e3 3d 07 c4 80 bd 2e e1 a4 bc 82 3e 1a bd
       0.11124184 -0.06287389 -0.020126905 -0.03765727
0003f0 dd 17 40 bd d6 7f 09 3c fe ab 0b bd 19 58 b9 3c
       -0.046897758 0.008392295 -0.03409957 0.022625016

decoder_conv.0.bias f4 [16]
000000 9b 03 06 b9 c4 99 11 36 a9 f2 f0 b7 ed 20 a1 37
       -0.00012780579 2.1696187e-06 -2.8723227e-05 1.9208028e-05
000010 c4 33 e3 b7 11 f9 95 b8 c0 48 c7 37 08 77 87 38
       -2.7084614e-05 -7.151266e-05 2.3756525e-05 6.459473e-05
000020 b4 c9 66 38 81 34 8b 38 61 07 37 38 64 ae b0 38
       5.5024124e-05 6.637816e-05 4.3637472e-05 8.424817e-05
000030 74 1e 59 38 44 82 09 39 21 25 8a b7 c2 af 8b 38
       5.1765193e-05 0.00013113866 -1.6468171e-05 6.660774e-05

decoder_conv.1.weight f4 [16]
000000 e3 47 5a 3f 1b 03 6c 3f 1d 3e 57 3f 62 3f 5c 3f
       0.8526594 0.9219224 0.8407915 0.86034214
000010 1a b5 4f 3f b0 19 62 3f ba 8a 4e 3f 34 4d 53 3f
       0.81135714 0.88320446 0.8068043 0.8253968
000020 00 fe 61 3f 41 0b 5c 3f 87 23 70 3f d8 10 82 3f
       0.882782 0.8595467 0.9380421 1.016139
000030 4f 9b 5b 3f 47 ad 5f 3f 7d b5 76 3f 77 7a 7f 3f
       0.8578386 0.87373775 0.9637068 0.9979624

decoder_conv.1.bias f4 [16]
000000 28 96 f2 bd a3 cb e6 bd 7f c1 bf bc 8f 2b 20 be
       -0.11845046 -0.11269309 -0.023407696 -0.15641616
000010 7a 80 01 be eb ed a2 3d f7 98 a6 bd b7 1a 94 bc
       -0.12646666 0.079555355 -0.081346445 -0.018079145
000020 82 c4 b8 bc 6a 5d 0b be 9a 37 ce bd e6 3f 44 bd
       -0.02255464 -0.13609853 -0.10069199 -0.0479125
000030 f7 e1 3d bd a0 11 77 bd 0b 3b 7c bd ca 72 92 bd
       -0.046358075 -0.060319543 -0.061579745 -0.071508005

decoder_conv.1.running_mean f4 [16]
000000 a7 3b de 3a 03 0e 16 bd 59 85 23 bd 1d 25 c1 bb
       0.0016955034 -0.036634456 -0.039922092 -0.005894317
000010 29 19 36 bc 38 55 e9 bc 55 23 21 bd fe 0b df bc
       -0.011114397 -0.028483018 -0.039340336 -0.027227398
000020 79 a6 b4 bc f2 61 48 3c 80 cc fe ba 3c 09 19 3c
       -0.022052037 0.012230383 -0.0019439608 0.009340581
000030 ff 93 3a bd f5 db f9 bc 5e 06 12 bd 2d 6f 05 bb
       -0.045551296 -0.030500391 -0.035650603 -0.0020360455

decoder_conv.1.running_var f4 [16]
000000 43 71 57 3b 49 64 82 3b 47 6f 92 3b 01 4c 4d 3b
       0.0032873906 0.00397924 0.0044688317 0.003132582
000010 18 a0 74 3b f0 18 c6 3b b7 0e 96 3b 60 7b 8e 3b
       0.0037326869 0.0060454533 0.004579391 0.0043482035
000020 0a 39 87 3b 7f 67 97 3b 4e e7 73 3b 48 bf 56 3b
       0.0041266726 0.004620492 0.0037216726 0.003276782
000030 f5 b5 88 3b cf 9e 68 3b 33 ee 72 3b 80 00 4e 3b
       0.0041720816 0.0035495048 0.0037068247 0.0031433403

decoder_conv.3.weight f4 [16, 8, 3, 3]
000000 9b b1 c0 3b c4 39 86 bd 8d 0f 6c 3c bc 4a a5 bd
       0.005880547 -0.06553987 0.0144080045 -0.08070895
000010 95 81 88 bd 79 42 d2 3c 5a a7 8b bd 63 1b 8f 3d
       -0.06665341 0.025666462 -0.06819029 0.069876455
000020 9e 78 15 3d ce 48 8e 3d 89 ad c6 bb 01 af 80 bc
       0.036491983 0.0694748 -0.0060631675 -0.015708448
000030 bd ca 45 bd e0 93 de bd a4 2b 5a bd db cd 0d bd
       -0.04828905 -0.10868049 -0.053264275 -0.034620147
000040 00 e5 13 bc 77 43 53 3d 5d 90 27 3d cc 15 be 3d
       -0.009026766 0.05157801 0.04090916 0.09281501
000050 53 19 5e 3d 63 4a 1a 3d 05 10 0c 3e e9 0e a1 bd
       0.05422337 0.037668597 0.13677986 -0.07864172
000060 95 63 66 3d 3d c4 9c 3d e7 3e 92 bd 28 d3 c9 bd
       0.056247313 0.07654617 -0.07140904 -0.09854728
000070 35 99 21 bd 10 1d cc 3c 97 a6 b4 bc 97 fa 5d 3d
       -0.03945275 0.024916202 -0.022052092 0.05419406
000080 4f 3d a7 3d 5b 19 4b bd d7 f9 70 3d 23 6a 77 bd
       0.081659906 -0.049584728 0.058832016 -0.060403954
000090 c0 ce b6 bc 06 8a 90 bc a5 81 60 bc cc c0 b2 bd
       -0.022315383 -0.01764394 -0.013702785 -0.08728179
0000a0 48 f5 03 bd 15 79 30 bd c6 a8 19 bd a3 36 6e 3c
       -0.03221634 -0.043084223 -0.03751447 0.014539394
0000b0 af 32 8f 3c fd 21 86 bc 26 ef 2d bd f5 38 30 3d
       0.017480223 -0.016373629 -0.042464398 0.04302307
0000c0 48 0e ba bd 2c d1 fc bd 1d bf 4c bc 2d 56 e0 bd
       -0.09084755 -0.12344584 -0.012496737 -0.10953937
0000d0 a6 41 28 be 71 bd aa 3b 6e e9 a0 bb 26 b9 8b 3c
       -0.16431293 0.0052105715 -0.0049106395 0.01705606
0000e0 30 09 54 3c 8e 02 a7 bc c3 53 dc bd f1 49 74 3c
       0.012941644 -0.02038696 -0.10758164 0.014910207
0000f0 82 d9 19 bd 76 f8 a9 bd 4b c9 e6 3c 36 ae 96 bd
       -0.037560947 -0.08299343 0.028172156 -0.07357447
000100 dc b6 42 bc ef 07 59 bd e9 bc 88 bd 3d dc b3 bd
       -0.011884417 -0.05298608 -0.06676657 -0.087822415
000110 b7 e7 25 be e2 de 87 bd 07 a7 f2 bd 53 53 bd bd
       -0.16201673 -0.066343084 -0.11848264 -0.092444085
000120 2e a9 61 3b 78 11 9a bc cf 0c f1 bd 95 6f 44 3d
       0.0034433114 -0.018807158 -0.11770021 0.047957975
000130 e3 b9 f6 bd e5 91 18 be 99 a7 4a bd 2f 24 a2 bd
       -0.12047174 -0.14899404 -0.04947624 -0.07917058
000140 62 ea 4c bd 5d d3 6a 3d 51 5b 39 bd 5a cf 5d bc
       -0.050028212 0.057330478 -0.0452531 -0.013538206
000150 1e 11 37 3d 01 da 88 bc 2d 25 80 3d 49 1b c2 bd
       0.04469406 -0.016705515 0.06257091 -0.094778605
000160 83 7a 73 bd a7 75 73 3c d7 2b 19 be cb be ca bd
       -0.05944301 0.0148595935 -0.1495813 -0.09899672
000170 f4 31 08 bd 15 ae 98 bd 7b 86 fa bd 6d d0 26 bd
       -0.033250764 -0.074550785 -0.12232681 -0.040726114
000180 9e da 32 3d 9b f3 33 bd 4f ab 69 bc d0 92 ca bd
       0.04366552 -0.043933492 -0.014262035 -0.098912835
000190 e3 6e c5 3c ad eb cd bd 9c 88 ab bd 24 cf dc bd
       0.024100726 -0.10054717 -0.083756655 -0.107816964
0001a0 ba 38 e9 bd 1d 3e 0d 3c 18 d9 cc bd e5 62 72 bd
       -0.11387773 0.008620766 -0.10002345 -0.059176344
0001b0 37 68 69 bd ac 3b 9a bd 44 c6 8b bc 8e e7 c1 bd
       -0.056984153 -0.07530913 -0.017062314 -0.09467994
0001c0 c6 f8 af bd 7f 22 d8 bd c9 68 97 bd a0 f5 dc bd
       -0.08592372 -0.105534546 -0.07393033 -0.10789037
0001d0 92 b6 a2 bd bb f1 92 bb 8e ad ae bc 7c 2a a5 3d
       -0.07944979 -0.004484383 -0.021322992 0.08064744
0001e0 a1 8e 07 be d2 54 de 3c fc cf 07 3e de 93 53 bd
       -0.13238002 0.027140055 0.13262933 -0.05165469
0001f0 96 6c 49 3d be ef f7 3c d8 26 56 3d 22 6d 0a be
       0.04917582 0.030265685 0.052283138 -0.13518193
000200 62 d0 a9 bc 43 68 a8 3d d8 34 fa 3d 77 43 ab 3d
       -0.020729247 0.08223011 0.122171104 0.08362477
000210 d1 bd 7b bd f6 10 85 bb a3 21 33 3d 5d 3e fd bd
       -0.06146032 -0.00406086 0.04373325 -0.123654105
000220 fc 9f af 3c be 28 b8 3d 34 09 d6 bd 73 e8 81 bd
       0.021438591 0.08992146 -0.10450974 -0.06343164
000230 d5 d0 74 bd 37 6c 1d 3c 14 9e a7 bd 81 d3 ff bd
       -0.05976947 0.00960832 -0.08184448 -0.12491513
000240 1e 4a a9 bd 4a 95 69 3d 85 df 5e bd c3 9f 42 39
       -0.0826609 0.05702714 -0.054412384 0.00018560798
000250 43 30 c1 3d 2f 19 59 3d f4 e4 6a 3d 3c c1 9a 3c
       0.09433033 0.053002533 0.057347253 0.01889097
000260 75 59 8a bd 13 69 ef bd 38 da da bd 9c c3 09 bd
       -0.06755344 -0.11689963 -0.10686153 -0.033633813
000270 58 05 d7 bd b1 2a 70 bc 0c 7c 11 3e 23 a3 c3 bd
       -0.10499066 -0.014658616 0.14207476 -0.095526
000280 3f 66 ae 3d 2d 9b 58 3d 92 c8 8b 3d 49 87 5b bc
       0.08515596 0.052882362 0.06825365 -0.013398954
000290 fa c4 8b bc f6 58 61 3d 10 15 06 bd 35 ae 6c bc
       -0.0170617 0.05501648 -0.03273493 -0.014445831
0002a0 5d b0 f1 3b 6c e5 0c bc 49 72 93 3b 8e c4 da 3c
       0.0073757605 -0.00859962 0.004499708 0.026705053
0002b0 3f 7d 95 3d db 6c 77 3d 81 71 ee 3d b0 66 80 3d
       0.072992794 0.060406547 0.11642743 0.06269586
0002c0 ca 6e e7 bd be c6 7c bc 41 c8 f2 bd 8d 52 f9 3d
       -0.11300428 -0.015428243 -0.11854602 0.121739484
0002d0 5c 1f aa bc 7e a2 0d be 95 5c 5e bb e0 52 20 3d
       -0.020766906 -0.13831517 -0.0033929695 0.039141536
0002e0 05 3e aa bd cf 29 97 bc e3 b7 cd 3d f0 0a 7b 3d
       -0.083126105 -0.018452553 0.10044839 0.061289728
0002f0 98 92 1d bd 38 02 87 bd 45 c2 82 3d f4 6c 76 3b
       -0.03846988 -0.0659222 0.0638471 0.0037601562
000300 10 9d cc bc 30 aa 41 3d fc 99 77 3d dd cd dd bd
       -0.024977237 0.047281444 0.060449585 -0.10830281
000310 2d da b7 3d 7d 3a 5e 3d 6c e5 89 3d 91 13 25 be
       0.089771606 0.054254998 0.06733212 -0.16120745
000320 38 07 a2 bd 36 ef a7 bc 45 74 b6 bd 52 34 e4 bd
       -0.07911533 -0.020499807 -0.089088954 -0.11142792
000330 ca d7 98 bc 68 a2 6c 3c d1 83 68 3d 90 48 03 bc
       -0.018657584 0.014443018 0.056766335 -0.008012906
000340 d0 57 6e bc 16 dd 6b 3a 25 e7 57 3c 00 c3 16 3c
       -0.014547303 0.0008997483 0.013177668 0.009201765
000350 9f 89 57 3d 58 52 86 3c d1 04 44 3c e6 1f f3 bc
       0.05262148 0.016396686 0.011964039 -0.029678296
000360 dc 9c 7f bd 49 3f 22 bd f7 07 8d bd 10 0c 3b bd
       -0.062405452 -0.039611135 -0.06886285 -0.0456658
000370 73 47 94 bc 86 95 58 3c 4a a4 32 bc 64 a2 d1 3c
       -0.018100476 0.013219243 -0.010903427 0.02559013
000380 4d 34 79 bd 3c d1 64 3d c2 e0 96 bd 17 fd 4e 3d
       -0.060840894 0.055863604 -0.07367088 0.050534334
000390 1f 95 7b bd 4f 5c 8b bd 66 56 be bc 2b 70 36 3d
       -0.06142151 -0.06804716 -0.023234557 0.044540565
0003a0 83 f0 5d bd 4d 88 56 3d bf 2f a3 bd 69 c2 a3 bd
       -0.054184448 0.05237608 -0.07968091 -0.07996065
0003b0 20 52 de 3c 34 52 f5 bd 61 f0 7d bd 24 ae 83 3d
       0.02713877 -0.119785696 -0.06199682 0.06429699
0003c0 9b a3 97 bd de c1 4e bd 99 9f ac 3d ae c1 1a 3d
       -0.07404252 -0.050477855 0.08428878 0.037782364
0003d0 57 5b 03 3d 54 8a 21 bb e2 a1 60 bc c0 4e dc bd
       0.03206953 -0.00246491 -0.013710471 -0.10757208
0003e0 00 4a b7 bd a9 83 11 bd 5e c1 32 3d 22 e9 35 bd
       -0.08949661 -0.03552595 0.04364144 -0.044411786
0003f0 4b be c1 bc 1c f5 e5 bd 23 c5 57 bc 7a b5 c0 3c
       -0.02365031 -0.112283915 -0.01316956 0.023524035

decoder_conv.3.bias f4 [8]
000000 99 1f 53 37 18 ac a8 36 eb 2e 5b 38 96 fa dc 37
       1.2583937e-05 5.0268245e-06 5.2257365e-05 2.6342732e-05
000010 0d 62 c9 36 47 22 fb b6 80 a2 5a 37 dc 57 81 b7
       6.0016814e-06 -7.4843733e-06 1.30316475e-05 -1.5418911e-05

decoder_conv.4.weight f4 [8]
000000 45 6b c2 3f c4 c1 bd 3f 12 6a b1 3f cb 31 ba 3f
       1.5188986 1.4824758 1.3860495 1.4546446
000010 39 a9 ae 3f 7d ab bb 3f 1d 86 b4 3f b6 3f ba 3f
       1.3645393 1.4661709 1.4103428 1.4550693

decoder_conv.4.bias f4 [8]
000000 1d e6 09 3f eb 9c 05 3f fe da 29 3d 63 5e fb 3e
       0.5386675 0.5219256 0.041468613 0.4909545
000010 a0 fd c9 3e ce 32 0e 3f 07 bf f3 3e 30 6f 01 3f
       0.39451313 0.5554627 0.4760668 0.50560284

decoder_conv.4.running_mean f4 [8]
000000 56 c9 96 bd 6c eb 10 3d 65 75 ce bb 7c 93 30 bd
       -0.073626205 0.035380766 -0.0063006156 -0.043109402
000010 41 89 b1 bd 13 52 9a 3c 2a 8c fd bc e1 37 4a be
       -0.08668757 0.018837964 -0.030950624 -0.19747879

decoder_conv.4.running_var f4 [8]
000000 ed 30 24 3d 18 97 28 3d 03 4c 1e 3d c1 23 28 3d
       0.04008572 0.04115972 0.03864671 0.041049723
000010 a9 7f 16 3d 76 4f 23 3d 4f 67 7c 3d 25 c2 16 3d
       0.03674284 0.0398707 0.06162196 0.036806244

decoder_conv.6.weight f4 [8, 1, 3, 3]
000000 de 1c 04 be 4a 20 32 be 68 50 41 bd 79 c5 1f be
       -0.12901637 -0.1739513 -0.047195822 -0.15602674
000010 de cd aa be 58 5b 92 be 26 40 38 be 69 a9 f9 be
       -0.3336019 -0.28585315 -0.1799322 -0.48762062
000020 f7 4c a6 be 80 17 64 bd 82 1a 88 be 8e 3e 4d be
       -0.32480595 -0.055686474 -0.26582724 -0.20043394
000030 7d 6d 20 3d 47 48 28 bf b3 c8 56 be c4 a3 c3 be
       0.039166916 -0.65735286 -0.20974998 -0.3821088
000040 9d 1a 9c be 33 ff 31 be b9 08 42 3e 2f 67 df 3e
       -0.30489054 -0.17382507 0.1894864 0.4363341
000050 99 22 9a 3e de ec dd 3e 7e 22 1e 3f d6 6b 91 3e
       0.3010452 0.43344778 0.6177138 0.28402585
000060 2e e5 8a 3e dd a1 73 3e e6 70 f6 3c 37 db 56 bc
       0.27127975 0.23792215 0.030083131 -0.013113788
000070 04 b5 e0 bd e3 68 e8 bd 4d c2 04 be 19 59 29 bf
       -0.10972026 -0.113481306 -0.12964745 -0.6615158
000080 bb 89 1b bf fe 3f 77 be 3a 85 7a be cd 63 7e be
       -0.60757035 -0.24145505 -0.24464884 -0.24842758
000090 13 70 03 be e2 6d d5 be 53 08 77 be 0f 17 60 be
       -0.12835722 -0.41685396 -0.24124269 -0.21883796
0000a0 74 6d a8 be 76 f3 ce be 03 12 ec 3d 60 08 0b be
       -0.32896006 -0.4042012 0.11526873 -0.13577414
0000b0 bb 6e a0 be ba bc 97 be 29 a7 ad bd e9 4b 89 be
       -0.3133448 -0.29636174 -0.08479149 -0.26815727
0000c0 55 cf 1a be a8 f7 28 be 97 2e 17 bf 62 91 11 be
       -0.15118153 -0.16500723 -0.59055465 -0.14215615
0000d0 05 6a 86 be 14 ee 87 be af 0a ff 3d e5 71 d8 3c
       -0.2625276 -0.26548827 0.124532096 0.026421497
0000e0 52 d1 cd bd 6c 92 9a be ad 6a 12 bf a7 a3 7f be
       -0.1004969 -0.30189836 -0.57194024 -0.24964772
0000f0 8a fa 0d be 86 b1 ed be db 2f ce be 3e 96 dd bd
       -0.13865104 -0.46424502 -0.40270886 -0.10819672
000100 b8 be 7a be 0c 8f 08 bd 4f 39 b8 be ed 9b 2a bf
       -0.24486816 -0.033339545 -0.35981223 -0.66644174
000110 a7 5c e9 bd 04 19 75 bd 9b 8b b7 be 2a 2b 73 bd
       -0.11394625 -0.05983831 -0.35848698 -0.059367336
