encoder_conv_autoenc.pt (torch, 177941 bytes, 14 tensors)

encoder_cnn.0.weight f4 [8, 1, 3, 3]
00000000: 5df7 1abd f70b ba3d 06d6 88be 2b14 36be
00000010: 3e0e 40be 9bd2 9dbc 3424 0ebe e82a 8f3d
00000020: 03a7 a53c fcf4 783d e619 cbbd 14d9 7fbd
00000030: 4988 36be 067b 5fbe 6ea3 0ebe bdbb 143d
00000040: dd3f 04bd 7950 cb3d c748 f8bd b5e7 a8bc
00000050: 4336 8a3d 1062 fa3d d2c7 433d 0f9e 093e
00000060: 1940 b5bd 7236 013e da24 5a3e 9eba 87be
00000070: 40f3 f5bd 8140 0abe 1a46 33bd ddaa 533d
00000080: b373 abbd e509 10be 39b7 24be 7127 28be
00000090: e66e e1bd 889a 923e 0ad1 273e 3a94 173e
000000a0: 9327 533d 6480 e1bc f10f 22be 573b bfbe
000000b0: 902a 2dbe 605f 0bbe be46 823e ffb7 1b3e
000000c0: 9678 ccbd 2e3f b33d 35a3 b73d 04bd 343e
000000d0: 6d7b 233e 5d71 53bd f887 4a3e e816 fb3c
000000e0: e688 b43d f046 67be 35c9 bbbd 7fa3 b0bd
000000f0: 5551 42bd 1e88 6f3b 1f99 40be 2d98 df3d
00000100: ef45 5f3e dbff 8dbd ca2e 5d3d cc36 013e
00000110: 5c3e 303d a41c 9f3e d770 09be 956f 7cbe
-0.03783356 0.09084313 -0.26725787 -0.17781131 -0.18755433 -0.019265464 -0.13880998 0.069906056
0.020221239 0.06078051 -0.09917049 -0.06246288 -0.17825426 -0.21824273 -0.13929531 0.036311854
-0.032287467 0.09927458 -0.12123256 -0.020618299 0.06748631 0.12225735 0.047797985 0.13439201
-0.08850116 0.12618425 0.2130312 -0.26509565 -0.12009287 -0.13501169 -0.043768026 0.05167662
-0.08371677 -0.14066274 -0.16085519 -0.16421296 -0.1100748 0.28633523 0.16388336 0.14802638
0.051551413 -0.027527042 -0.15826394 -0.3734996 -0.16910768 -0.13610601 0.25444597 0.15206908
-0.099839374 0.08752285 0.08966676 0.17650229 0.15965052 -0.051621784 0.1977843 0.030650571
0.08815174 -0.22585654 -0.091692366 -0.086249344 -0.047440846 0.0036549638 -0.18808411 0.10917697
0.21804021 -0.06933566 0.0539997 0.1261856 0.04302822 0.3107654 -0.13421951 -0.2465194

encoder_cnn.0.bias f4 [8]
00000000: 8163 ec3d da22 b53e 7ecc 6f3e 32d4 a43e
00000010: 453f 733d 0cf2 52be 2617 873d dad2 48be
0.11542416 0.35378152 0.23417851 0.32193142 0.05938651 -0.20600146 0.06596212 -0.19611683

encoder_cnn.2.weight f4 [16, 8, 3, 3]
00000000: 5d20 b2bd 1e4b 6c3d 470d b43d 2bac 8cbd
00000010: f5c3 953d d590 7b3d b124 5c3c 0eeb a03c
00000020: 4b65 9ebc a7ec 15bd 87ed 5d3d 8e05 bd3d
00000030: 050f fa3d 5f6f 473d d0d9 34bc b1c2 35bc
00000040: 3a1e 6a3c e93a ba3c a5da d3bc ae67 fdbc
00000050: 76c7 a03d 1eae ac3d a320 35bd a4ab 89bd
00000060: 641d 42bd 42a0 1d3d f130 d3bd 4788 b8bd
00000070: 389f ebbc 4e5d c63d 453a 97bc c5a8 943d
00000080: 10dc 8a3c b1a2 f03d 757d ac3d 5d02 183d
00000090: ae33 e03c 9daa 9bbd 2ca9 97bd e421 e83c
000000a0: dcfd 743c 6f2f 87bd 30db 67bc 917a 2c3d
000000b0: c4bb 7d3c 7fef a23c 200f 8a3c b586 8abd
000000c0: a507 d1bd fbb8 763d fc4b 163c 8e0e b6bd
000000d0: 6eff 0a3d 4d79 723d 93a9 773d dd50 5c3d
000000e0: 0e16 abbb b249 023b d946 b8bc 972d 78bc
000000f0: 7fd9 a83d 6b50 2ebb 1e5b 543d ee90 ff3d
00000100: 5324 8abd 8e88 43bc bbdd 893d 82d2 613d
00000110: eadd 9d3c ef9c 1dbd a00c 6a3c 484a 77bc
00000120: 271c a6bd a479 00bc cb11 673d fba9 2cbd
00000130: 3ad9 14be 30a6 efbd f1ad 013d fc75 f6bd
00000140: f39f 05bd ecc4 61bd f845 9abd ac56 90bd
00000150: e78a a4bd e1fe edbd 19b6 c3bd d787 793d
00000160: 909b 8ebd d64c fbbc 2372 a63d 7be2 813d
00000170: 649c c03d c831 893d 28d8 a1bc c435 593b
00000180: 8ab5 d5bd 53b5 c4bd be69 003d 35cb a5bd
00000190: 02c8 3ebd 2ef0 32bd b151 da3c 79df a6bd
000001a0: 0ee9 f9bc c59c 083e 57a8 80ba 5ad1 abbd
000001b0: 46fa f8bb 7759 9b3d f8c1 dc3d 8325 4d3d
000001c0: 984c 1e3d 4bd3 ad3c dd04 10bd 96c6 08bd
000001d0: 0534 dfbc 675f 66bc 367f 973b 4924 81bd
000001e0: e3a9 313c 2823 273d ba88 9cbd 3f05 03be
000001f0: 1e13 12be a259 acbb 2cd5 873d f493 b33b
00000200: f54a c13d 9264 e63c 4548 63bd acff 873d
00000210: 88d5 30bd b7e1 85bd 73de d3bd c300 123d
00000220: eada e0bd 26d3 3abd da75 a13d 6ae5 edbd
00000230: 79ff 22bc 302e bbbb d65c 23bd 6f71 82bd
00000240: ec43 0fbc e973 80bc 81c0 86bd 545c b03c
00000250: 7b5d 84bd f8a0 2dbd 0660 b2bd 69bc 1ebd
00000260: a3ad 02bc 3260 083e d0ce 923d e910 c0bd
00000270: 4269 b63d e557 d73c d211 18bd b845 2f3d
00000280: 547e 3a3d c494 593d 8bdd a3bb a3d6 e1bb
00000290: cb8e 193d 3ec6 61bd e864 843b 1e4d e7bd
000002a0: 149a f93c e985 66bd b32a f3bd 9089 563d
000002b0: a2aa a43d 4e7f c6bc ed21 6bbc 788d 55bd
000002c0: 21e5 00be 99a0 f43c 3925 26bd 385f c3bc
000002d0: 9121 42bd f451 5e3d ece7 e43c 3964 333c
000002e0: cf4c 353c 89d5 cdbb 0a74 b83c 7498 5ebd
000002f0: 99af b03d a094 7cbd 0054 b6bd 5aa5 25bd
00000300: 8a80 9abd 583b ebbd a1c7 04bd d1be adbd
00000310: 8f71 703c 2c67 8ebd ca09 093c aec3 d6bc
00000320: 82f8 e9bd c707 22bd 77e2 02bd 8f7e cc3c
00000330: e8e6 07bd 8f59 253d 1323 e43b 4843 f7bc
00000340: cb15 e5bc f807 92bd 069e 40bd 1f66 19bc
00000350: 049d 72bd ff82 873d bf5d 7dbd 9536 b5bd
00000360: 5dde 98bb 0d48 cebd 9570 d73a a040 87bd
00000370: c9d3 fabc fc9d c9b8 7517 6ebc 8ba5 57bb
00000380: 0f5a 9ebd ac5f 70bd b47c 13bd 9426 06bb
00000390: fbe0 89ba 7fac 8fbd 756b febd 9980 c13c
000003a0: e8e2 babd b936 e9bd 2461 5e3c b774 5f3d
000003b0: 5a5c 96bd 8eac e03b 579b 913d aac4 193d
000003c0: f91f 48bc 824c b13a 0b04 cdbd 2251 14bd
000003d0: 6c16 8dbc df14 f53c 18e7 4ebd 4734 c9bd
000003e0: c4d4 77bd 35c6 a4bd 8923 98bd 7587 8ebd
000003f0: 3e90 953d 622a d8bc 2fd9 58bd da83 2d3e
-0.08697579 0.057688825 0.08791595 -0.06868776 0.073127665 0.06141742 0.013436482 0.019643333
-0.01933541 -0.036602642 0.0541816 0.09229575 0.12209896 0.048690196 -0.011038259 -0.011093781
0.014289433 0.022733169 -0.025861094 -0.030933227 0.07850544 0.08431648 -0.044220578 -0.06722191
-0.04739131 0.038482912 -0.10312069 -0.09010368 -0.028762445 0.09685765 -0.018460402 0.07258753
0.016950637 0.11749781 0.084223665 0.03711163 0.027368393 -0.07600901 -0.07405314 0.028336473
0.014953103 -0.06600844 -0.0141513795 0.042109076 0.015486661 0.019889591 0.016852915 -0.067639746
-0.10206536 0.060235005 0.0091733895 -0.08889495 0.033935003 0.059197713 0.060464453 0.053788055
-0.005221135 0.0019880352 -0.02249472 -0.015147588 0.08244609 -0.0026598226 0.05184471 0.12478815
-0.067452095 -0.011934413 0.06731745 0.055132397 0.019270856 -0.03847974 0.014285237 -0.015093394
-0.081108384 -0.007841501 0.056413453 -0.042154294 -0.1453599 -0.117016196 0.031660024 -0.120342225
-0.032623243 -0.05511944 -0.07532877 -0.07047781 -0.08034306 -0.1162088 -0.09556217 0.060920563
-0.06963265 -0.030676287 0.081272386 0.06342026 0.09404829 0.06698948 -0.019756392 0.003314362
-0.104350165 -0.09604897 0.031350844 -0.08095399 -0.04657746 -0.043686084 0.026650282 -0.08148093
-0.030506637 0.13341053 -0.0009815794 -0.0838954 -0.0075981943 0.075854234 0.10779184 0.050084602
0.038647264 0.021218916 -0.035160888 -0.03339251 -0.027246485 -0.014060832 0.004623319 -0.06305749
0.010843727 0.040805012 -0.07643266 -0.1279497 -0.14265105 -0.0052597085 0.06632456 0.005480284
0.09438125 0.028124128 -0.055488843 0.066405624 -0.04317239 -0.06537192 -0.10345163 0.035645258
-0.109792545 -0.045611523 0.078838065 -0.11616023 -0.009948605 -0.005712293 -0.039883457 -0.06369292
-0.008744221 -0.01568027 -0.06579686 0.0215284 -0.064631425 -0.04238984 -0.08709721 -0.0387539
-0.0079759685 0.13317946 0.071683526 -0.09378225 0.08906795 0.026287029 -0.03712637 0.0427911
0.045530632 0.05312039 -0.005000775 -0.006892042 0.037489694 -0.0551207 0.0040403493 -0.11294006
0.030468978 -0.05628005 -0.118733786 0.052377284 0.08040358 -0.024230625 -0.01435135 -0.05213687
-0.12587406 0.029861735 -0.040562842 -0.023849115 -0.047395293 0.054277375 0.02794262 0.010949188
0.011065676 -0.006281559 0.02251627 -0.05434461 0.086272426 -0.061665177 -0.089027405 -0.040440895
-0.07544048 -0.11485928 -0.032416943 -0.08483661 0.014675512 -0.06953272 0.00836415 -0.026216354
-0.11424352 -0.0395582 -0.031954255 0.024962692 -0.033179194 0.040368613 0.006962189 -0.03018345
-0.027964493 -0.07130426 -0.047025703 -0.0093627265 -0.059231773 0.066167824 -0.06185698 -0.08848301
-0.0046651796 -0.10072336 0.001643675 -0.06604123 -0.030618565 -9.613854e-05 -0.01453196 -0.0032905068
-0.07732021 -0.05868499 -0.036007598 -0.0020469772 -0.001051932 -0.07015323 -0.124228396 0.02362089
-0.0912531 -0.11387391 0.013572965 0.054554667 -0.073418334 0.0068565076 0.07109707 0.03754107
-0.012214654 0.001352683 -0.10010537 -0.036210187 -0.017222606 0.029917179 -0.050513357 -0.09824424
-0.060505643 -0.080456175 -0.07428653 -0.0695943 0.07302903 -0.026387397 -0.052941497 0.16944829

encoder_cnn.2.bias f4 [16]
00000000: f507 6eb8 264e 923a bd4c eab9 4e3f 3337
00000010: b7b9 a338 aea0 b7b9 1806 8236 f8f8 45b8
00000020: 1170 d7b8 2147 b7b9 78b7 0f37 86c4 b6b7
00000030: d3ee 9eb9 de08 cfb9 1981 a3b8 985c 73b7
-5.6751032e-05 0.0011162206 -0.00044689132 1.0683971e-05 7.807038e-05 -0.00035024196 3.8750113e-06 -4.720033e-05
-0.00010272873 -0.00034957475 8.566181e-06 -2.1787604e-05 -0.00030314046 -0.00039488723 -7.796492e-05 -1.4505487e-05

encoder_cnn.3.weight f4 [16]
00000000: 3f8b 643f c5b0 753f f3d2 5d3f 06cd 763f
00000010: f01a 7e3f 98d7 493f 6b29 6c3f 81b0 633f
00000020: c99e 6f3f 1a99 773f 7145 7f3f d258 683f
00000030: 4725 7a3f fe66 583f 9c47 733f 2613 673f
0.8927497 0.95972854 0.8665001 0.9640659 0.99259853 0.78844595 0.922507 0.889412
0.9360166 0.9671799 0.99715334 0.9076053 0.9771313 0.84532154 0.9503114 0.90263593

encoder_cnn.3.bias f4 [16]
00000000: d011 943d 8580 283d bab8 023d 2542 913d
00000010: 7f26 ce3d 0a9a e6bc d101 7dbc 33da 903d
00000020: 00ea 903d addb 5b3d 86f7 cb3d 7c08 4d3d
00000030: 5676 1f3e 08ca 583c 4b34 083d dc8a bd3d
0.0722996 0.04113819 0.03191445 0.07092694 0.10065936 -0.028149623 -0.015442328 0.07072868
0.07075882 0.053676296 0.09959321 0.05005692 0.15572485 0.013231762 0.033252995 0.09255001

encoder_cnn.3.running_mean f4 [16]
00000000: 8b97 043e f4b0 5abe 3f22 c3bd 0e99 73be
00000010: a6be a73e d983 13bd b1e8 b0bc 4a82 a23e
00000020: a2dc 1abe cea5 353a 8ed2 4bbe 6821 3c3e
00000030: 36a5 82be feb1 86bd d358 e6bc cfe7 513e
0.12948434 -0.21356565 -0.09528016 -0.23788854 0.3276264 -0.03601441 -0.02159533 0.31740028
-0.15123227 0.0006929309 -0.19904539 0.18372118 -0.2551667 -0.06576918 -0.028118527 0.20498584

encoder_cnn.3.running_var f4 [16]
00000000: 38a6 c73b bfce f93b b752 cb3b 082e 383c
00000010: 967a 3b3c d65b a13b 6f04 2d3c 0cef 063c
00000020: 49ed 323c c3bc 1e3c e023 0b3c 66c5 d33b
00000030: 4e2e 243c 29ab c33b 7cd1 3c3c aa29 043c
0.006092813 0.007623523 0.0062049287 0.011241443 0.011442801 0.004924278 0.010560139 0.008235704
0.010920831 0.009688559 0.00849244 0.0064627407 0.0100208055 0.0059713316 0.011524554 0.008066574

encoder_cnn.5.weight f4 [32, 16, 3, 3]
00000000: 2720 213d f4d2 32bc f8d0 053c adc5 a63d
00000010: fbb1 bdbc 6ebd fdbd 2fb2 473d 2287 cf3b
00000020: 5364 463d ee45 d5bc dc39 f93d 9671 1a3d
00000030: 8c17 9fbb df73 113d a8e5 9c3d 87a5 c6bd
00000040: a292 13bd 7358 103c 6ecc e9ba 0026 403d
00000050: d569 a83d 405b a13d 55ed cb3c a929 323d
00000060: edf4 1cbd 7691 97bc 69ad a03a 37cb 893c
00000070: 902f ef3d 75ff 873d bef4 233c 38e4 eb3c
00000080: 1e80 91bb ea37 a0bd 4fa9 003d c3ef 6e3d
00000090: 56f5 d8bb 9091 edbc 0444 eabc 120d 083e
000000a0: f291 8cbd 6910 b0bd 41b8 d83d 2e41 303a
000000b0: 5062 9bbd fd23 81bd 3725 0ebb 2aa7 81bd
000000c0: e15d 6dbd a6d3 6dbd 3a50 213d 2ea4 60bb
000000d0: 2a71 2a3d a12e 5f3d 4f6d e7ba e9b3 a63d
000000e0: e709 14bd 368b 933d a40c a4bd e025 99bc
000000f0: 5859 47bd 06e8 403d 8d75 3f3d d0af 213d
00000100: a29b 3aba 3236 64bd d435 ae3c 5b08 c43c
00000110: d02f dcbd 1eb1 18bd 45db d1bb 6dce b0bc
00000120: 30d0 483b ce87 803c 09be f0bc 59db adbd
00000130: 072e fabd f785 673d a37b 85bc 942c 01bd
00000140: c45c 6abb 2bab bcbd e22a 013d 79d3 a6bd
00000150: b4bc 9d3d 4013 943c 1c27 c3bc 660e 8ebd
00000160: ec7a 4bbd 9570 1cbc b66b 063d 0380 713d
00000170: 6f23 f0bc a9b7 353c a950 243c b6e9 963d
00000180: 7590 babd 0d2d c7bb 05da f73d eb03 2fbd
00000190: 8183 1bbd d3d2 5f3d 7a48 3dbc d44e 103d
000001a0: 6c55 26ba b0b1 e23d cb8c c4bd b1f4 99bd
000001b0: 68f8 623c ca3e 963c c075 af3c 158d 35bd
000001c0: 4375 72bb 7a4a bb3d 1a80 93bd 898a 8c3c
000001d0: 4a2a 933d 56c7 393a fa8b 47bc 6fe3 39bb
000001e0: e617 9fbd 511d c63d 42ce 8bbc fc0a c73c
000001f0: 6b4c fa3b 1f0f 0c3c 4e6c 8bbc 2ed4 a03d
00000200: f878 efbb 16dc 073d cb1e 0abe 8871 7b3d
00000210: b2a0 243d 01ae f1bd d70e 763d e80b 123d
00000220: 8c74 413d 3ee3 d03c a17e c5bc 804c 5bba
00000230: 49a4 debd 90c5 193d 81e9 84bc 05d2 17bd
00000240: 0f14 b4bb f3de 88bc cbd5 5d3d be0f 0ebd
00000250: d6f9 bd3b fdda 69bc 5117 483a cda9 de3c
00000260: 4d1c 08bd 1f85 263c 2059 f73c 0207 883d
00000270: 9617 17bb 45cf 8ebd 8e1d b43d 2c47 3e3c
00000280: 7a83 c63c 162c f6bc baf4 873d 01c6 283c
00000290: d221 683d 8496 db3d 1111 753d 7f05 3bbc
000002a0: 60ab 3dbd 4939 8bbd 0994 58bd 04e5 793d
000002b0: 308b 223b aee7 1abd 8dab bbbc 8f21 6dbb
000002c0: cae5 0dbe 2b7f 623c a662 96bc 2ec1 983d
000002d0: f13b 053c 4257 47bd 45f4 363d 8847 f93c
000002e0: 3056 2a3d ab72 6cba f0f2 40bd 779e 73bd
000002f0: e828 80bd 6604 bdbd aa75 89bd f75d 783d
00000300: 5433 eebb 67e0 8dbb 855a 1dbd 87c0 0cbd
00000310: 4dd0 2e3c e00e 99bc 6bf2 edbc 474d 963d
00000320: 700f 383d 384d 9fbd 7f7f 3abc 6e09 123e
00000330: a7b9 a53d 89d4 b43c 409d d8bc 7095 abbc
00000340: 3c47 27bc 342a 803d b653 993c 8071 2b3d
00000350: 2634 17bc 486d c1bd 9209 7cbd dfa3 c3bd
00000360: 9e81 b9bc e163 6ebd 825f 0f3d ed3b 563d
00000370: 544b aa3c 3084 22bd 2262 30bc 11d1 1bbc
00000380: 47a2 c33d 8300 7a3d 717e 65bd b21e 293d
00000390: b6ee 0b3c 0a6e fcbd e4a4 7bbc 04e6 aa3d
000003a0: e8b8 ae3d a65a c03b 1d00 763d 9d42 df3c
000003b0: 7921 843d dfcd f1bc a8f7 743d 2861 22be
000003c0: 1cd8 e63d 7988 2abd e8a2 e53d 4635 0d3d
000003d0: 09cb b53c 182d 30bd be87 f3bd a8a0 323d
000003e0: ee1c 893c f269 17ba 87f6 653d 7ee2 17bd
000003f0: b23f 6f3c 81b4 5ebd 0c98 a13b c16b 06bd
0.039337303 -0.010914553 0.008167498 0.081431724 -0.023156157 -0.123896465 0.048753913 0.0063332478
0.04843552 -0.026034322 0.12169239 0.03770598 -0.004855102 0.035510894 0.07660991 -0.096995406
-0.03602851 0.00881015 -0.0017837414 0.04691124 0.08223311 0.07878733 0.024893442 0.04349676
-0.038319517 -0.018501978 0.0012258712 0.016820533 0.11678994 0.066405214 0.010007082 0.028795347
-0.0044403216 -0.07823165 0.031411465 0.058334123 -0.006621043 -0.029000074 -0.028596886 0.13286236
-0.06863774 -0.0859688 0.10582019 0.000672358 -0.07587111 -0.06305692 -0.0021689662 -0.06330712
-0.057950858 -0.05806317 0.03938315 -0.0034277546 0.041611828 0.05448783 -0.0017656478 0.08139784
-0.036142256 0.07204287 -0.080102235 -0.018694818 -0.04866919 0.047096275 0.046742965 0.03947431
-0.0007118528 -0.055715747 0.021265902 0.023929765 -0.10751307 -0.037278287 -0.006404313 -0.021582806
0.0030641668 0.015689757 -0.02938749 -0.08489103 -0.1221581 0.056524243 -0.016294306 -0.031536654
-0.003576086 -0.09212335 0.031535037 -0.08145804 0.07702008 0.018075585 -0.02382236 -0.0693634
-0.049677774 -0.009548326 0.032817565 0.058959972 -0.029313771 0.011091151 0.0100289965 0.073687956
-0.09109584 -0.0060783685 0.12102131 -0.042728346 -0.03796721 0.054644417 -0.011552924 0.035231426
-0.00063451263 0.110690475 -0.09597167 -0.07517374 0.01385317 0.018340487 0.021418452 -0.044324
-0.0036996163 0.09145065 -0.07202168 0.017155902 0.071858004 0.00070868933 -0.012179369 -0.002836432
-0.0776823 0.096735604 -0.017066125 0.02429723 0.0076385043 0.008548527 -0.017019417 0.0785297
-0.007308122 0.033168875 -0.13488309 0.06138757 0.040192313 -0.11800767 0.060072746 0.035655886
0.04723029 0.025498983 -0.024108233 -0.00083655864 -0.10871179 0.037541926 -0.016224625 -0.037065525
-0.0054955552 -0.016707873 0.054158967 -0.03468298 0.005797605 -0.014273402 0.0007632869 0.027180577
-0.033230115 0.0101635745 0.030193865 0.06641962 -0.002305483 -0.06973127 0.087946996 0.011613648
0.024232615 -0.030050319 0.06638475 0.010301114 0.05667288 0.10722068 0.05983073 -0.011414885
-0.046306014 -0.06798036 -0.052875552 0.061009422 0.00248022 -0.037818603 -0.02290895 -0.0036183333
-0.13857189 0.0138242645 -0.018357586 0.07458721 0.008131967 -0.0486672 0.044666547 0.030429617
0.0415861 -0.00090197724 -0.047106683 -0.059477296 -0.06257802 -0.092293546 -0.06711896 0.060636487
-0.0072693024 -0.0043297294 -0.038416404 -0.034363296 0.01066978 -0.01868385 -0.029046258 0.07338958
0.044936597 -0.077784 -0.0113829365 0.1426141 0.08092051 0.022074 -0.02644217 -0.02094528
-0.010209855 0.062580496 0.018716674 0.04185629 -0.009228742 -0.09444672 -0.061532564 -0.0955274
-0.022644814 -0.05820072 0.035003193 0.052303243 0.020787872 -0.039676845 -0.010765584 -0.0095102945
0.09552436 0.061035644 -0.056028787 0.04128904 0.0085408 -0.12325676 -0.015359137 0.08344653
0.08531362 0.005870181 0.0600587 0.027253443 0.06451697 -0.029517112 0.059806496 -0.15857375
0.11271688 -0.041634057 0.112127125 0.034474634 0.022191541 -0.043011755 -0.11891125 0.043610245
0.016737428 -0.000577598 0.05614331 -0.037081234 0.0146025885 -0.05437136 0.0049314555 -0.032817606

encoder_cnn.5.bias f4 [32]
00000000: 9a5b 54bc a6df 5e3c 8d5c c53c ea14 673d
00000010: f021 463d 4dd5 593d 96d6 82bb 9d9b a83d
00000020: 1fba 083d 73e9 6f3d a8c4 b2bc 99a2 e7bb
00000030: 1d68 32bd 7bd9 f53b bdd7 763d da20 1bbc
00000040: f1ef b33a 97ad 8f3c 83d2 5cbd 2f67 f9b9
00000050: a0b8 1038 2d59 23bc a8ae a5bc 4841 603d
00000060: 4667 953c 0cae 6abb 33d7 7dbc 7d67 0c3c
00000070: 5788 3fbc a31c f9bc 8313 743d 79d1 a03b
-0.012961293 0.013603127 0.024091983 0.05641643 0.04837221 0.053181935 -0.003992866 0.08232806
0.033380624 0.058572244 -0.021822289 -0.0070689437 -0.04355632 0.0075027323 0.060264338 -0.009468282
0.0013728124 0.017538829 -0.053911697 -0.0004756986 3.450422e-05 -0.009969992 -0.020224884 0.054749757
0.018237721 -0.0035809306 -0.015493202 0.008569595 -0.011690221 -0.030409163 0.05958892 0.0049077836

encoder_lin.0.weight f4 [128, 288]
00000000: 43ca 63bb 9e0b 02bd ff34 b23c 72e3 a9bb
00000010: c962 5cbb ff3b 1f3d 8b2b 45bc d14e d93b
00000020: f497 14ba 836d 3abc 2b6c ffbc d07c c43a
00000030: 53f8 45b9 6331 2fbc 5547 a73c 8dea a8bc
00000040: 1ca2 6cbc 852b fe3c b8fa 04bc 8ff8 e1bc
00000050: bd30 0abc 4b48 21bc ddbc 9a3c 068e 17bd
00000060: ab47 913c 360a f0bc ab61 3d3c c25e 0dbc
00000070: 835b 53bc b8a9 c73b 9ce4 063d 40d1 6b3d
00000080: 4690 d73c e7fc 1e3c f70a b53c e5bc 0fbd
00000090: 75ba 3e3b 8f05 be3c 4947 a63c 89b3 d63c
000000a0: 5427 bb3c 68ad 55ba 9660 473d 60b4 5bbb
000000b0: 8709 63bb d2c6 6339 d602 e63a 4c32 6a3c
000000c0: 9f1f d93c 9555 f13c beb8 12b8 7044 6fbc
000000d0: 9ad2 933c 1919 413d 9bf5 3a3d 200c 9dbb
000000e0: e91b b9bb 1129 4c3b 6606 0bbc 8eb7 eebc
000000f0: 99b6 323d 5c14 cd3c 1ac8 ea3a bd92 7abb
00000100: b478 363b 9e8d 683b 4010 2c38 94b8 163b
00000110: 7908 513d 3ce6 573c 9ffb 3c3d af0c 60bc
00000120: bea9 9d3a 2765 66bc 7504 833c 2267 8e3c
00000130: 5e11 64bc b10d dabb 6429 c93b a897 db3c
00000140: 57ca ddbc a274 a33c c33c 9ebc 6663 03bd
00000150: 97cc 103c 6280 993c 21c7 7b3c 49a7 b2b9
00000160: c74d 5b3c 1706 b13c b20d db3b 318f 9bbb
00000170: 1882 c33c 7a47 f73b cdfd 02bb 9dee 56bc
00000180: cf7b 5c3c 55c4 153b effb 553d 6b63 2c3c
00000190: 9783 383b e84b 98bb 3941 913c 5fd4 4dbc
000001a0: c6ab f43c 5cb3 733c 04de 653c dd88 183d
000001b0: ab03 c5bc ecd8 35bd b60d 8c3b 7c95 b6bb
000001c0: 6c91 8e3c cca3 0f3a 516d 85bc 674f f63b
000001d0: 2d6b 53bc ab0f c6bb 7ee5 4c3c 6996 cbbb
000001e0: 3601 d6bc 128e 573c 22dc 1fbc 4726 86bc
000001f0: 36ea 91bc 7a7d 843c 7ee2 563a d7f5 cb3c
00000200: dc6a c1bc dc20 f937 d0ac 883c 1e16 803a
00000210: 0f65 0e3d 30e5 c6bd 39c9 0e3d 3872 263c
00000220: 5095 553d 13b7 b5bc 6420 163d d1f2 a73c
00000230: 0e14 123c a802 f93c 2d5d 773c bf70 13bd
00000240: 42f1 513c 9031 4a3c 48f2 b3bc 1d37 85bb
00000250: 2b86 97bc 80a7 633b 7421 3ab9 c743 0d3d
00000260: 9739 ad3c f94d 85bb 182a 6b3b 6cf0 84bc
00000270: 1a71 e13c dcb8 a83c 35f2 98bc 7a19 823c
00000280: 0dd9 153d 01be 6d3d 5b83 41bc 3551 61bc
00000290: 95c1 063d 76ba de3c 9037 573d 53b8 a93b
000002a0: 364f 9d3c 1749 463b 80d2 ea3c e944 873c
000002b0: 9231 3fbd 8086 03bc 1d0b f33c f8ed cdb9
000002c0: ac7a 403d 14b5 00bd bb71 09bd 38cf d4bb
000002d0: 1bf4 6e3b 9a5f 283c 4eca 9cbc 3749 013d
000002e0: 961f a63b c50c 3fbd 2484 6f3b 4884 e9bb
000002f0: f0ee 17bd 5287 57bc 7159 843c f448 33bd
00000300: 7d7c dd3c f1ee ed3c 3a08 4ebd be08 b7bc
00000310: ca17 e63c 536b 93bb 317b 98bc 13b2 c23c
00000320: 252b e93b c64c 193d 6eed 6b3b 5c0b fcbb
00000330: c746 97bc f7c5 b439 3ac5 ac3a a70f 123c
00000340: 0cec 16bd 29e2 a83c 204a d73c 2e75 aa3c
00000350: 04fd 413c 34fb c93c 1426 98bd 30ae 213d
00000360: b791 40bb 8a4b a6bc 34e3 ff3c 4cc5 7e3c
00000370: f711 63bc c9a6 963b adf5 353d 4bed 66bd
00000380: 750b 8b3d 6ade 083d 6d28 a03c 353b 273c
00000390: aca4 d6bc 7680 f13c 1b65 1d3c bc72 86bc
000003a0: 9630 e93c aaa8 06bc 1e9b 3b3c a5fe cebc
000003b0: c417 8f3c df0b 28bb 3894 70bc a17f 68bb
000003c0: a2df 873c 0650 113c edda 1ebb c7ba 29bc
000003d0: dd6f 8c3c 72d3 2ebb 5e74 b33b f3c8 93bc
000003e0: 7d39 6c3c b00a 2dbd 93d7 d73c 3f0d 9fbc
000003f0: 4d41 c1bb 22fe 34bd d857 883c 6686 f23b
-0.0034758009 -0.03174936 0.021753786 -0.0051845843 -0.0033628216 0.038875576 -0.012034307 0.00663171
-0.0005668395 -0.011378649 -0.031179508 0.001499081 -0.00018879892 -0.010692927 0.020419756 -0.020619655
-0.014442947 0.031026611 -0.008116417 -0.027584342 -0.008434472 -0.009843896 0.018888885 -0.03700068
0.01773437 -0.029301744 0.01155893 -0.008628549 -0.012900236 0.00609323 0.032932863 0.057572603
0.026313912 0.009703851 0.022099955 -0.035092253 0.0029102836 0.02319601 0.020297663 0.026208656
0.022845902 -0.0008151145 0.048676096 -0.003352426 -0.003464313 0.00021722473 0.0017548453 0.014294218
0.026504336 0.029459754 -3.4981167e-05 -0.014603719 0.018044759 0.047143076 0.045644384 -0.004792705
-0.005649079 0.0031152407 -0.008485412 -0.02914026 0.04363117 0.025034122 0.0017912418 -0.0038234435
0.002784294 0.00354848 4.102313e-05 0.00229982 0.05103347 0.013177451 0.046138402 -0.013674899
0.0012028737 -0.014062203 0.015993336 0.017383162 -0.013920156 -0.006654464 0.0061389674 0.026805714
-0.027074022 0.019953076 -0.019316083 -0.032077216 0.0088378405 0.018737976 0.0153673 -0.00034075443
0.013385243 0.02160935 0.006684982 -0.0047472944 0.023865744 0.0075463625 -0.0019987703 -0.013118413
0.013457253 0.0022852619 0.052242216 0.01052175 0.0028154606 -0.0046477206 0.017731296 -0.01256284
0.029867064 0.014874306 0.014029983 0.037239898 -0.0240496 -0.044396326 0.0042740954 -0.005572019
0.017403327 0.0005479425 -0.016287478 0.0075167897 -0.012903971 -0.0060443482 0.012505887 -0.0062129986
-0.026123624 0.013156431 -0.009757074 -0.016375674 -0.017811876 0.016173113 0.0008197202 0.024897499
-0.023610525 2.9698414e-05 0.016683966 0.0009772216 0.034764346 -0.09711683 0.03485987 0.010159068
0.05214435 -0.022182023 0.036651984 0.020501526 0.008915914 0.030396774 0.015097898 -0.035996195
0.012813868 0.012340918 -0.021966115 -0.004065408 -0.018496593 0.003473729 -0.00017750805 0.034488466
0.021145625 -0.004068133 0.0035883244 -0.016227923 0.027519751 0.02059596 -0.01867018 0.015881289
0.03658395 0.05804253 -0.011811103 -0.013752271 0.032899458 0.02718852 0.052543223 0.005179444
0.01920281 0.0030255967 0.028664827 0.016512351 -0.046678133 -0.008027673 0.029668385 -0.00039277948
0.04699199 -0.03142269 -0.033555727 -0.006494429 0.0036461416 0.010276699 -0.019139435 0.031563964
0.0050696833 -0.046643037 0.0036547268 -0.007126365 -0.037093103 -0.0131548215 0.01615593 -0.043770745
0.0270369 0.0290446 -0.050300814 -0.022343036 0.028087515 -0.004498878 -0.01861343 0.023766553
0.007115739 0.037426732 0.0035999673 -0.007691784 -0.018466366 0.0003447977 0.0013181337 0.008914865
-0.036846206 0.020615654 0.026280463 0.020807829 0.011840109 0.024655916 -0.07429138 0.03947276
-0.0029383728 -0.020299692 0.031236269 0.015549969 -0.013859264 0.004597519 0.044423748 -0.056378644
0.06789295 0.033415236 0.019550527 0.010206987 -0.026201569 0.0294802 0.009606625 -0.016412131
0.02846555 -0.008218924 0.011450557 -0.025267908 0.017467387 -0.0025641841 -0.014683776 -0.0035476463
0.016586129 0.008869177 -0.0024239377 -0.010359473 0.017143184 -0.0026676324 0.0054765185 -0.018040156
0.014418003 -0.04224652 0.026347911 -0.019415496 -0.005897677 -0.044187672 0.01664345 0.0074012754

encoder_lin.0.bias f4 [128]
00000000: 912a 9e3d ccaf bb3b 700e 143c 1dc7 2d3c
00000010: ce4c 7bba 675c 603c 41d6 20ad bdbf 5b3c
00000020: d42e a93d 200d fc3c 95d1 bc3c cc0c 5e3c
00000030: 1a16 263d a549 2aba a723 363d 4d04 903d
00000040: 9bbe 3b3d 0ef3 193c 8b13 9cba 53cb dbbc
00000050: ec31 c1b1 48e4 623d 9081 d33c c333 cfb2
00000060: 4f97 4eae ca19 363d 06d6 6d3d da24 8d3b
00000070: a49e 2d3b 7caf bfb3 9b5b 013d 2921 c7b7
00000080: 861c f53c dff2 bcbd f6a1 b73c 0db6 02bc
00000090: 2836 c2b2 7fa8 cbba 1a25 1c3d bab2 95bd
000000a0: 28bc 813d cde3 253d 80c2 cf3c ac22 1a3d
000000b0: cace 10bd f685 543c 0e92 edba 1108 18b6
000000c0: 725d ab3d 6d09 28b6 0740 3f3d 7b13 5ab8
000000d0: 7cf4 31ba 12b6 893d 9aec ac3c 4033 273d
000000e0: 2870 983c caad 373b d5ea 43bc 7453 7dba
000000f0: 8379 63ad ab6d 08b5 65b4 a2bc 0ae1 8fbd
00000100: e023 71bd d0a9 48b6 1563 4f3d 3be9 193d
00000110: dbb2 113d 6b94 88b5 a740 e03c 4bf4 033d
00000120: aff9 113d a36f 1bb9 3eac 493b d86c b63c
00000130: 1e15 0e3d 02a9 b8bc c12b 2cba 7e61 283c
00000140: 4d4f a0bc daa7 753c 4b16 f7bb e322 413d
00000150: 4351 0f3d d08c 9a3d f59f db3b 1897 babb
00000160: 3f85 34bc f963 dabb cd6f 30bb 0299 983c
00000170: 103a c63c 9c11 82bc 1afa abba 9599 a93d
00000180: 008b 4b3c 17ab 9d3c 6c4d 613d eb15 f13c
00000190: 761b 793c ce40 f2bc 91c9 1a3d 2f8e 84bd
000001a0: 5211 0dbd 634b b3b3 c3f1 763d b833 313d
000001b0: bf1e 853b 71ad 933d 18d1 a43d 4bbd 01bc
000001c0: f7fe 133d 0619 1dae dd48 68bc a8c6 9eba
000001d0: ee16 7e3c d795 1b3b 7dfc 85ba 653b 5ab4
000001e0: ec4d adbb 8488 1a3c b482 8dbb deca 543d
000001f0: 41c0 203d ad89 163d 5f86 0dbd d334 f4b4
0.07722963 0.0057277437 0.009036645 0.010606554 -0.0009586335 0.013693905 -9.142521e-12 0.013412413
0.08260885 0.030767977 0.023049155 0.013552856 0.04054842 -0.0006495959 0.044467594 0.0703207
0.045836072 0.009396328 -0.001190768 -0.026830351 -5.6227147e-09 0.055393487 0.025818616 -2.412151e-08
-4.6973366e-11 0.044458188 0.058065437 0.0043073716 0.0026492262 -8.926051e-08 0.031581502 -2.373809e-05
0.029920828 -0.092260115 0.022416096 -0.007977975 -2.26092e-08 -0.0015537887 0.03812132 -0.0730948
0.06334716 0.04050045 0.0253613 0.037630722 -0.03535346 0.012971392 -0.0018125193 -2.265446e-06
0.08367433 -2.5039437e-06 0.04669192 -5.1993393e-05 -0.0006788445 0.0672418 0.021108914 0.04082036
0.018608168 0.002802717 -0.011957844 -0.00096636196 -1.2930437e-11 -5.0823536e-07 -0.01986141 -0.07025345
-0.058872104 -2.9901166e-06 0.0506316 0.03757594 0.03557096 -1.0175985e-06 0.027374579 0.032215398
0.035638507 -0.0001482354 0.003077283 0.022268698 0.034688108 -0.022541527 -0.0006567799 0.01027715
-0.019569064 0.014993632 -0.0075404993 0.04715241 0.034989607 0.07546389 0.006702418 -0.0056942813
-0.0110180965 -0.0066647497 -0.0026922107 0.018627647 0.024197608 -0.015877537 -0.0013120801 0.082812466
0.012423277 0.019246621 0.055005476 0.029429397 0.015204301 -0.029571917 0.037789885 -0.06472432
-0.034440346 -8.34905e-08 0.060289156 0.043262213 0.004062503 0.07210816 0.08047694 -0.007918666
0.036131825 -3.5719892e-11 -0.014177528 -0.0012113648 0.015508397 0.0023740435 -0.0010222342 -2.032444e-07
-0.00528883 0.009431962 -0.0043185595 0.05195128 0.039245848 0.03675239 -0.034551974 -4.5486976e-07

encoder_lin.2.weight f4 [2, 128]
00000000: 6747 e73c 10aa 83bc 6894 c6bc 5af2 993d
00000010: ac13 b43c 4dcc 0fbd 781f 83bb be86 183b
00000020: bf09 be3d aeec 43ba 9686 843c b5e0 743e
00000030: 03c6 15bd c165 33bd 540f 8abd 04ad a63d
00000040: cbfb 1dbd 3b27 70bd 2766 9d3a c221 d2be
00000050: b559 871d 97ff 13bc 3816 c63d b14b 873b
00000060: db6f 5336 ff0b 99bd 6406 6cbd c48e 033d
00000070: 9f91 17bc 46e4 6638 4f85 68be 8bee 07ba
00000080: 859b 87be dfd9 173e 6d84 653c 4be0 6b3e
00000090: e947 77b0 ec48 973d b6f0 11be 9650 6dbd
000000a0: 11e4 2e3e 8f0a 233d 6f00 a43d 8854 203e
000000b0: 8c7d 38be c70a 3dbe 33e5 e6bd 6755 97b5
000000c0: 5ee0 f93d a46d 06ba 1a9d 673d 9aa2 1fb9
000000d0: cfda 1d3d 830a a7bc b630 793d 19f2 04bd
000000e0: b63c 1a3e aa00 efbd a5fc fa3c 4fc5 d03d
000000f0: df4e 0ba9 8ebf 0532 3023 1cbc 4e33 0abe
00000100: e54d 50bc bbef e8b9 da57 53be 0192 583e
00000110: 5175 a33d 9e89 6e39 2e90 a8be b7c5 9ebb
00000120: 4ea2 923d 56f9 2cbb a12c 483e eb01 7ebe
00000130: 955b ad3d 6867 0bbe e86b 36bc 7dad dfbd
00000140: e902 89bc 88e4 cebd 9508 94bd 4ca7 94be
00000150: 12f7 593e 5279 9b3b 8b93 2d3d 86fa 973e
00000160: 1443 95bc 9fdc e63c ef23 203c 5239 203d
00000170: 1fef ec3d 196d f73c b5ec 903d b876 ee3b
00000180: d1a6 9dbc dc7a 2ebc a0d8 833c 3555 1b3e
00000190: ced5 52bd 48df ed3c 71b8 45be dde0 afbc
000001a0: 0d2a a73e f76d b031 d1d5 50bd 94d8 12bd
000001b0: 72d6 9e3e 6a2d e73c ff65 69bd 8f86 eebc
000001c0: 32c0 803d 5151 0eb9 cf5f d7bb d8fa 76be
000001d0: beb9 e53e 2443 1abc 52cd 1e3b cb9c 3bba
000001e0: 3c9a c4bc b129 183e 0895 bd3e 2b76 cabc
000001f0: 6d6c 2e3d f454 83bc 6124 863d 192c 1eb9
00000200: 2f55 58bd bbe4 85bd f608 ddbc b1fb 9abd
00000210: 020b 4cbc 7847 d8bc 1f4d 59bc 4f40 803d
00000220: 81ad 2ebd 3024 18bd 4941 87be 2b91 36bc
00000230: e52c 27bd e901 453d c7a8 923d 05ad 75bd
00000240: 0d38 993b 4ee4 2c3d 9b91 3e3c c5a5 173e
00000250: 2dd8 fead 71ed b9bc 2953 123e 89c4 053c
00000260: 7c2f de37 3d01 82bd 8d46 8c3e 43ee a6bc
00000270: 606b 45bc 959d a939 69ed 703e 3d1c 69bb
00000280: 629b 7bbe da49 3d3e ca25 98bd a3fc 523e
00000290: 5939 8f33 0832 523d cdf6 53be 6d0e e93d
000002a0: 843b a43d ce9a 52bd abbd 243d 276b aa3e
000002b0: 5325 1dbd 38ff 3bbd beff 723d 09b3 88b7
000002c0: fac2 2dbe ed18 cb3a 5ba3 21bd bf46 deb8
000002d0: 6709 2abd d67a b2bc e7cd 28be 5a90 b1bb
000002e0: 1c14 1d3e 3dbb 65be 990a a13b 2a00 8a3b
000002f0: 0ab6 bc2f dec0 7e38 4f78 03bb 4ee2 7e3d
00000300: 821e c23c e28e 1cbb 9799 063d 80e4 2dbe
00000310: 9e57 cbbc 3ef2 a03a 053c 26be 0755 f9bb
00000320: 92ba b53e e09f 523b dc44 c7bd 1762 2c3e
00000330: d20d 173d fa52 a03e cbf0 463d 45c1 06be
00000340: 4ec2 f93b 75c8 92be 3594 d3bd f3a9 e23d
00000350: 1303 d3bd e277 a8bd e703 b8bc af80 8c3e
00000360: 510c 2cbd e0fe 733c 7eb1 0ebc 0289 ebbc
00000370: e64b f13b 70d9 1cbd e35d bbbe d3a3 27bd
00000380: f25b a23e d7af 72bb 2fc7 8fbc 9413 0a3e
00000390: 078a 1abe 0185 fb39 d1cb 193d 8a9c 913d
000003a0: f0ce b3bd ce1c 0237 0ccd 8ebd 1aff ea3d
000003b0: 1ec5 043e 4314 68bd 2e11 96bd 6f64 8dbc
000003c0: 317c 7d3e 5af7 c2b9 d866 43bc 930a 8f3d
000003d0: 16f6 6abd 8351 603b f69d 83ba e5c3 9eb7
000003e0: 065e 4839 3f38 c63c d154 ba3d 576f d0bc
000003f0: 0b7e d4bc e1f1 32bd 2570 813d 1f42 62b8
0.02823229 -0.016072303 -0.024240687 0.07516928 0.021982037 -0.035106946 -0.004001554 0.0023273672
0.09279203 -0.00074739277 0.016177457 0.23913844 -0.03656579 -0.043798212 -0.06741205 0.08138469
-0.038570207 -0.058631163 0.0012008593 -0.4104138 3.5826957e-21 -0.009033105 0.09672207 0.004128896
3.1506559e-06 -0.07472991 -0.057623282 0.032118574 -0.009251027 5.504887e-05 -0.22707103 -0.0005185387
-0.2648584 0.14829205 0.014008624 0.2303478 -8.9960267e-10 0.073869556 -0.1425198 -0.05793818
0.17079188 0.03980499 0.08007895 0.15657246 -0.18016642 -0.18461142 -0.11274185 -1.1275232e-06
0.12200998 -0.0005128032 0.056546308 -0.00015223995 0.03853875 -0.020390755 0.06083747 -0.032457445
0.15062222 -0.116700485 0.030638048 0.10193884 -3.093261e-14 7.785173e-09 -0.009529874 -0.13496134
-0.012713884 -0.000444291 -0.20638981 0.21149446 0.07981361 0.00022748715 -0.329225 -0.004845347
0.071598634 -0.0026393733 0.19548275 -0.24805419 0.084647335 -0.13613665 -0.011134125 -0.10921762
-0.01672502 -0.101021826 -0.072281994 -0.29033887 0.21285656 0.004744687 0.042377036 0.29683322
-0.018220462 0.028181372 0.009774192 0.039117165 0.11569046 0.030203389 0.07076398 0.007277336
-0.019244583 -0.010649409 0.016094506 0.15169223 -0.05147343 0.029037133 -0.1930864 -0.021469528
0.3264927 5.1347757e-09 -0.05098516 -0.035851076 0.31022984 0.028219897 -0.056982037 -0.029116897
0.06286658 -0.00013572468 -0.0065727006 -0.24119127 0.44868273 -0.009415422 0.0024231267 -0.0007156848
-0.023999326 0.14859654 0.37027764 -0.02471455 0.04258387 -0.01603172 0.065499075 -0.00015084482
-0.052815612 -0.065377675 -0.026981812 -0.075675376 -0.012453796 -0.026401266 -0.013263016 0.06262266
-0.042645935 -0.037143886 -0.26416996 -0.011143009 -0.0408143 0.048097525 0.07161098 -0.059979457
0.004675871 0.042209916 0.011631395 0.1480933 -2.8972458e-11 -0.022696229 0.14289536 0.008164533
2.6486574e-05 -0.063478924 0.27397576 -0.020377284 -0.012049526 0.000323516 0.23528065 -0.003556981
-0.24570993 0.18485203 -0.07429083 0.20604186 6.669388e-08 0.051317245 -0.20699616 0.113797046
0.08019164 -0.051417165 0.040219944 0.33284876 -0.038365673 -0.045897692 0.059325926 -1.6295833e-05
-0.16968909 0.0015495099 -0.03946243 -0.000105989624 -0.041512873 -0.021787088 -0.16484796 -0.0054188194
0.15339702 -0.22434707 0.0049145934 0.0042114453 3.4326347e-10 6.073794e-05 -0.0020060723 0.06222754
0.023696188 -0.0023888876 0.03286132 -0.16981697 -0.024822053 0.0012279225 -0.16233833 -0.007609013
0.35493904 0.003213875 -0.09729931 0.16834293 0.036878414 0.31313306 0.04856948 -0.13159664
0.00762204 -0.28668562 -0.103310026 0.110675715 -0.10303321 -0.08225991 -0.022462798 0.27441928
-0.042003933 0.01489231 -0.00870931 -0.028751854 0.007363784 -0.038293302 -0.36595067 -0.04092772
0.31710774 -0.0037031078 -0.017551033 0.13484031 -0.15091716 0.00047973546 0.03754789 0.071099356
-0.087797046 7.75531e-06 -0.06972703 0.11474438 0.12965819 -0.056659948 -0.073274955 -0.017259805
0.24754407 -0.00037186855 -0.011926375 0.06984439 -0.057363592 0.0034228272 -0.0010041583 -1.8926288e-05
0.00019108513 0.024196742 0.09098209 -0.025443716 -0.025939008 -0.043687705 0.06320218 -5.394418e-05

encoder_lin.2.bias f4 [2]
00000000: 20c8 31bd 55a3 e6bc
-0.043403745 -0.028154055
